project/power/state_reasoning/STLDecompose-master/model.ckpt (torch_old, 858516 bytes, 10 tensors)

lstm.weight_ih_l0 f4 [512, 28]
0.17434666 0.19822893 0.42774725 0.7333851 0.56026834 0.39717188 0.20094875 -0.016798904
-0.071156755 -0.14287126 -0.30398893 -0.28987715 -0.32109356 -0.14811505 0.010045229 0.03763858
-0.15020415 -0.35355803 -0.34581476 -0.1683409 -0.0009248513 0.14770755 0.062243916 0.009662066
0.04699209 -0.043724295 0.02750341 0.5257777 0.4102442 -0.17994103 0.16296117 0.6618668
0.4586308 0.12544027 0.020817574 -0.091807336 -0.015699094 -0.01972534 0.11999332 0.4636465
0.595193 0.19107667 0.047842544 0.023989722 -0.014919859 0.29312664 0.22387576 -0.13954794
-0.17695235 -0.17507571 -0.27899668 -0.49506843 -0.35511723 -0.61523545 -0.28174406 0.44562063
-0.06771387 -0.42003402 -0.021137172 0.2267792 -0.010892285 -0.023746584 -0.078301266 -0.043016948
0.039354954 -0.24655305 -0.67979383 -1.1037071 -1.0036256 -0.42216703 -0.274925 -0.09469697
-0.14107491 -0.3643216 -0.33160353 0.0051255063 0.32897907 0.4936344 0.26974973 0.2215986
-0.15431806 0.011689738 0.0074102427 -0.06393927 0.03728095 -0.30883506 0.38407043 0.1608407
0.16776034 0.3135722 0.1817488 -0.08329573 -0.060907714 -0.18313806 -0.10811087 -0.15260448
-0.36743495 -0.26548335 0.09037283 0.12782292 -0.12050171 -0.09228648 -0.23176402 -0.16720851
-0.10921849 -0.066032365 0.1233168 0.21951835 0.08835388 -0.21617158 -0.045120258 0.61802834
-0.024148177 0.17231394 0.2416017 -0.32419848 -0.32442474 -0.38416883 -0.525741 -0.7370353
-1.0664918 -1.0045577 -1.1205759 -1.062796 -0.6789567 -0.46432978 -0.7275524 -0.80232793
-0.7192549 -0.5211196 -0.6721259 -0.011084202 -0.095120005 -0.544528 -0.30822834 -0.54167765
-0.52912104 -0.11851932 0.35903153 -0.44458902 0.19721563 -0.47400683 -0.6974313 0.24403064
-0.029583909 -0.10352547 0.042874914 0.07187431 0.37339336 0.29371804 0.3012071 0.3057227
0.5519306 0.665205 0.24869025 -0.28741613 -0.22668146 0.21315764 0.73467535 0.54375273
0.20221141 0.15030873 0.093705244 -0.2618522 -0.056759972 -0.09324472 0.27072662 0.8312246
0.010049579 -0.29780978 0.4973681 0.09679871 0.1518784 0.34939882 0.5902213 0.6685082
0.49651256 0.3383569 0.4544788 0.2072784 0.17854479 0.37720305 0.45185256 0.41137242
0.13237089 0.12623115 0.2499793 0.2022722 -0.27398455 -0.40614417 -0.7425998 -0.7156259
-0.5700026 -0.021247113 0.2587351 0.77371067 0.00263757 -0.09473132 0.08725759 0.45873725
0.58281606 0.651818 0.53743154 0.4067037 0.13006553 0.029034395 0.11259617 0.3418814
0.31799245 0.0024247803 0.0060628676 0.2974102 0.4355651 0.47353277 -0.013306362 -0.02101303
0.35535115 0.51135945 0.91746664 1.0182114 0.6812569 0.6242504 0.03635766 0.4756821
-0.047926888 0.3128459 -0.14284971 -0.338567 -0.29923227 0.0016057261 0.06298417 0.21948706
0.36315194 0.28799105 -0.024942765 -0.1323308 -0.39191696 -0.21265627 0.21649642 0.34239867
0.17593184 -0.11410474 -0.18942727 -0.23902322 -0.22046563 -0.17640871 -0.096541286 0.3615487
0.49082258 -0.039079636 0.05302237 0.90823793 0.06643792 0.065830626 0.06283928 0.060144942
00000000: ee87 323e 86fc 4a3e b001 db3e 20bf 3b3f
00000010: bf6d 0f3f 1d5a cb3e 82c5 4d3e db9d 89bc
00000020: a2ba 91bd d84c 12be 70a4 9bbe c76a 94be
00000030: 6066 a4be 79ab 17be bf94 243c e92a 1a3d
00000040: 1ecf 19be 8f05 b5be a20e b1be 8f61 2cbe
00000050: b871 72ba a640 173e 7af3 7e3d a44d 1e3c
00000060: c77a 403d 3f18 33bd d54e e13c 5e99 063f
00000070: 870b d23e 7642 38be 4bdf 263e 1a70 293f
00000080: a8d1 ea3e 6a73 003e 9e89 aa3c 7c05 bcbd
00000090: 639b 80bc 0997 a1bc 0fbf f53d 1363 ed3e
000000a0: 925e 183f 9aa9 433e 8bf6 433d 1886 c43c
000000b0: 6d72 74bc b214 963e b03f 653e a8e5 0ebe
000000c0: ff32 35be 0c47 33be a7d8 8ebe 9c79 fdbe
000000d0: edd1 b5be 1280 1dbf c240 90be 6328 e43e
000000e0: 92ad 8abd b30e d7be dd27 adbc ce38 683e
000000f0: 8e75 32bc 3288 c2bc 6a5c a0bd 8a32 30bd
00000100: a932 213d 6778 7cbe f806 2ebf 4646 8dbf
00000110: ce76 80bf 4726 d8be f8c2 8cbe 7cf0 c1bd
00000120: f175 10be 5c88 babe f0c7 a9be ddf3 a73b
00000130: f26f a83e a6bd fc3e a31c 8a3e beea 623e
00000140: 8e05 1ebe 5186 3f3c 9fd1 f23b 98f2 82bd
00000150: e9b3 183d a11f 9ebe e1a4 c43e 6db3 243e
00000160: 5ec9 2b3e 898c a03e 5c1c 3a3e f496 aabd
00000170: 5e7a 79bd 8b88 3bbe 3b69 ddbd 5944 1cbe
00000180: 6f20 bcbe 6fed 87be 6415 b93d 03e4 023e
00000190: 9ac9 f6bd b200 bdbd 8c53 6dbe b538 2bbe
000001a0: f2ad dfbd fa3b 87bd 858d fc3d 6bc9 603e
000001b0: e1f2 b43d 155c 5dbe 05d0 38bd 1b37 1e3f
000001c0: 66d2 c5bc 1173 303e 7066 773e 58fd a5be
000001d0: 001b a6be c7b1 c4be f696 06bf 58ae 3cbf
000001e0: ce82 88bf 5995 80bf 086f 8fbf b309 88bf
000001f0: 1bd0 2dbf a2bc edbe e040 3abf 5d65 4dbf
00000200: 1721 38bf 1868 05bf 7110 2cbf 839a 35bc
00000210: 47ce c2bd 3066 0bbf 1bd0 9dbe 63ab 0abf
00000220: 7a74 07bf 42ba f2bd fbd2 b73e 2ca1 e3be
00000230: e5f2 493e 06b1 f2be dc8a 32bf 2be3 793e
00000240: f459 f2bc 2905 d4bd 9b9d 2f3d d732 933d
00000250: 6a2d bf3e 3662 963e d137 9a3e b087 9c3e
00000260: 534b 0d3f e04a 2a3f a8a8 7e3e 3528 93be
00000270: 2f1f 68be ff45 5a3e af13 3c3f 6133 0b3f
00000280: 8210 4f3e 88ea 193e 89e8 bf3d 7e11 86be
00000290: 257d 68bd 16f7 bebd ae9c 8a3e 23cb 543f
000002a0: fda6 243c 867a 98be 08a7 fe3e 673e c63d
000002b0: 0386 1b3e 67e4 b23e be18 173f 5a23 2b3f
000002c0: e536 fe3e 1e3d ad3e 72b1 e83e ca40 543e
000002d0: 72d4 363e c220 c13e 3859 e73e 689f d23e
000002e0: 3c8c 073e bd42 013e 93fa 7f3e 7220 4f3e
000002f0: b447 8cbe 21f2 cfbe 051b 3ebf 4233 37bf
00000300: b1eb 11bf 6d0e aebc ed78 843e e711 463f
00000310: 15db 2c3b 7f02 c2bd 1bb4 b23d 9cdf ea3e
00000320: 6f33 153f 8bdd 263f 1d95 093f 783b d03e
00000330: e62f 053e 8ad9 ed3c d298 e63d 140b af3e
00000340: e8cf a23e 10e9 1e3b 05ab c63b 2646 983e
00000350: 6402 df3e e372 f23e ed02 5abc 8523 acbc
00000360: 96f0 b53e 74e8 023f 18df 6a3f c054 823f
00000370: da66 2e3f e0ce 1f3f c5eb 143d 9b8c f33e
00000380: fc4e 44bd 562d a03e 3247 12be a758 adbe
00000390: f934 99be 3a77 d23a d8fd 803d 37c1 603e
000003a0: 0def b93e 9073 933e c554 ccbc ba81 07be
000003b0: 57a9 c8be 91c2 59be 3db1 5d3e e14e af3e
000003c0: 7a27 343e bfaf e9bd 39f9 41be 81c2 74be
000003d0: bec1 61be 7ca4 34be 70b7 c5bd e91c b93e
000003e0: 194d fb3e f811 20bd fc2d 593d 4882 683f
000003f0: 9b10 883d 35d2 863d e1b1 803d 8b5a 763d

lstm.weight_hh_l0 f4 [512, 128]
-0.19834146 -0.07727815 0.0075168693 -0.02569377 -0.27020946 -0.14930837 0.46936312 -0.4197732
0.45078042 -0.58232033 -0.5345445 0.2615752 -0.07313884 -0.1724241 0.22641766 -0.2539378
-0.08424873 -0.703878 0.38889182 0.5291733 0.38571146 -0.21299505 0.06735709 -0.28388178
-0.022043942 -0.083174214 -0.25947794 0.5421567 0.10850689 0.31130707 0.29033074 0.029540075
-0.013409392 0.0430835 -0.4221217 0.07636237 0.2855007 -0.198774 -0.2702026 0.38421297
-0.064407706 -0.122287296 0.4681933 0.19631538 -0.32831123 -0.23271559 -0.21088281 0.50665283
-0.27989236 -0.44682068 0.37472743 -0.058203787 0.4917174 0.090764165 -0.29739046 -0.07499867
0.10007082 0.6964128 -0.4910214 -0.32202348 0.13598247 0.00049694086 -0.24080235 -0.06622807
0.01456973 -0.042705815 -0.16104239 0.046423953 -0.5290064 0.05468821 -0.42583525 -0.039420843
0.15275024 -0.2930882 -0.29697904 -0.066596456 -0.51818925 -0.20385861 -0.10158342 0.13893946
0.1948078 -0.62189555 0.6614504 0.12376037 0.124472745 0.70652926 -0.29484043 0.06799545
-0.09931584 -0.34714484 -0.17031327 -0.5088802 -0.07360739 0.12260795 0.35119927 0.2895657
-0.08433497 -0.026267653 0.04936001 0.7292161 -0.42882007 0.14599632 0.36057568 0.33501172
0.18025973 -0.32601416 -0.21682888 0.24655138 -0.20778064 -0.022408923 0.48874182 -0.07279923
-0.192118 0.31387675 0.041109223 -0.39153206 0.044477507 0.032433704 0.30686507 0.035068374
0.14959566 -0.15120365 -0.32471794 -0.09475914 -0.17569272 -0.033266827 -0.085579045 -0.116342284
-0.34866756 0.52233547 -0.5154161 -0.1418747 -0.46613073 -0.17060831 0.34690347 0.15777443
-0.08237502 -0.25932205 -0.15158296 -0.090016045 0.2802251 0.02976422 -0.25804415 0.2444923
-0.21085325 -0.2231443 0.005739619 0.34071878 -0.21965888 0.039840788 0.08392067 -0.1796471
0.0053014504 0.20739624 0.26440307 0.6040782 0.1925721 -0.25194523 0.10490968 0.466526
-0.17222539 -0.084160104 -0.18590148 -0.39672807 -0.075686984 0.2042451 0.1171382 0.17591345
-0.1945372 -0.2742403 0.6627233 0.099444024 -0.3526781 -0.19069974 -0.33939186 -0.105522156
0.1363242 -0.30504435 0.43987584 -0.09735094 0.13385417 0.18908873 -0.3504158 -0.67063737
0.007988259 0.2760802 -0.6882925 0.20525776 0.2669918 -0.25755093 -0.52864385 -0.6250344
-0.34847382 -0.118706666 -0.6885834 -0.3371164 -0.0007946925 0.10959531 0.051961448 -0.16813855
-0.3124033 0.66598874 0.004211152 -0.23423837 -0.3858318 -0.0941485 0.38181302 0.57275826
0.1743883 -0.1336944 -0.057452854 0.25464386 0.26527366 0.4324864 -0.12902738 -0.1848614
0.41888213 -0.32331356 0.23368822 -0.30382115 0.3801737 -0.08097721 0.15916917 0.35000813
0.4993404 0.06339063 0.0369782 -0.00797676 0.60738873 -0.18698592 0.14299768 0.6956892
0.1474975 -0.30928203 -0.1935103 0.082571335 -0.22775394 -0.01699753 0.5185089 0.4638583
0.55390894 -0.12621084 0.45075116 -0.3413388 0.2930605 0.008918999 0.536206 0.062197175
0.11245105 -0.4643776 -0.672157 -0.3138121 -0.33295467 -0.0038656073 -0.30081615 -0.15538038
00000000: 061a 4bbe 0244 9ebd 1250 f63b be7b d2bc
00000010: e558 8abe 4be4 18be 5d50 f03e 83ec d6be
00000020: b1cc e63e f212 15bf e9d7 08bf 2fed 853e
00000030: d1c9 95bd f18f 30be 08da 673e 2304 82be
00000040: 998a acbd 5931 34bf d41c c73e e777 073f
00000050: f97b c53e 601b 5abe 84f2 893d f458 91be
00000060: 7f95 b4bc 3e57 aabd 4bda 84be c8ca 0a3f
00000070: dc38 de3d a463 9f3e 3ba6 943e 07fe f13c
00000080: 11b3 5bbc 5378 303d 5620 d8be e063 9c3d
00000090: 262d 923e 698b 4bbe ff57 8abe 90b7 c43e
000000a0: 30e8 83bd c371 fabd 08b7 ef3e e606 493e
000000b0: 6918 a8be ff4c 6ebe aaf1 57be 00b4 013f
000000c0: 0d4e 8fbe aec5 e4be 46dc bf3e 1867 6ebd
000000d0: 62c2 fb3e 90e2 b93d 9043 98be e798 99bd
000000e0: eef1 cc3d 1c48 323f 2867 fbbe 43e0 a4be
000000f0: fd3e 0b3e 2345 023a e494 76be 95a2 87bd
00000100: e0b5 6e3c 4bec 2ebd 4ce8 24be 0b27 3e3d
00000110: f76c 07bf bf00 603d 1407 dabe c077 21bd
00000120: 8f6a 1c3e a80f 96be a30d 98be b963 88bd
00000130: 0da8 04bf 50c0 50be f80a d0bd 2546 0e3e
00000140: b27b 473e 8c34 1fbf d054 293f 1476 fd3d
00000150: 91eb fe3d 1adf 343f 53f5 96be 3341 8b3d
00000160: 1a66 cbbd f8bc b1be 9a66 2ebe f945 02bf
00000170: 79bf 96bd e019 fb3d 64d0 b33e f541 943e
00000180: d0b7 acbd 432f d7bc b92d 4a3d e8ad 3a3f
00000190: 4e8e dbbe 0f80 153e 609d b83e a886 ab3e
000001a0: 0296 383e 54eb a6be 6408 5ebe f777 7c3e
000001b0: 73c4 54be eb92 b7bc 5e3c fa3e c317 95bd
000001c0: 95ba 44be 74b4 a03e 2562 283d e476 c8be
000001d0: 0c2e 363d 34d9 043d 6b1d 9d3e dba3 0f3d
000001e0: 9b2f 193e 21d5 1abe 6e41 a6be 1411 c2bd
000001f0: cbe8 33be cc42 08bd 1144 afbd dd44 eebd
00000200: 8e84 b2be c7b7 053f 4ff2 03bf 9a47 11be
00000210: b0a8 eebe f2b3 2ebe 559d b13e 9f8f 213e
00000220: 3cb4 a8bd dcc5 84be 9038 1bbe 555a b8bd
00000230: aa79 8f3e 18d4 f33c 5d1e 84be 315c 7a3e
00000240: eae9 57be f07f 64be 6a13 bc3b b172 ae3e
00000250: 42ee 60be 1830 233d 9ade ab3d 69f5 37be
00000260: cab7 ad3b ae5f 543e d75f 873e dea4 1a3f
00000270: 9f31 453e f7fe 80be e3da d63d 7fdc ee3e
00000280: da5b 30be 225c acbd f55c 3ebe f11f cbbe
00000290: c701 9bbd a125 513e 27e6 ef3d a822 343e
000002a0: c234 47be 3969 8cbe 3ca8 293f 4fa9 cb3d
000002b0: 3992 b4be cb46 43be c5c4 adbe 001c d8bd
000002c0: 9298 0b3e c62e 9cbe 6837 e13e ee5f c7bd
000002d0: 1111 093e 7aa0 413e b369 b3be e4ae 2bbf
000002e0: 30e1 023c 625a 8d3e f033 30bf 172f 523e
000002f0: 26b3 883e b7dd 83be 3455 07bf 4102 20bf
00000300: 296b b2be 7b1c f3bd 0047 30bf 859a acbe
00000310: e952 50ba 8273 e03d 87d5 543d 832c 2cbe
00000320: 53f3 9fbe 3d7e 2a3f b4fd 893b 2fdc 6fbe
00000330: bf8b c5be eed0 c0bd ff7c c33e 49a0 123f
00000340: d992 323e 2fe7 08be af53 6bbd ae60 823e
00000350: f3d1 873e db6e dd3e c11f 04be 4f4c 3dbe
00000360: b877 d63e 5b89 a5be f74b 6f3e 728e 9bbe
00000370: 21a6 c23e 61d7 a5bd 3efd 223e 4434 b33e
00000380: 8ba9 ff3e f2d2 813d 7476 173d f5b0 02bc
00000390: d47d 1b3f 3d79 3fbe fc6d 123e b018 323f
000003a0: 9609 173e 375a 9ebe 9027 46be 291b a93d
000003b0: 5438 69be 673e 8bbc 00bd 043f d67e ed3e
000003c0: facc 0d3f 6a3d 01be dbc8 e63e f6c3 aebe
000003d0: 070c 963e fe20 123c cc44 093f 77c2 7e3d
000003e0: bc4c e63d e7c2 edbe 7b12 2cbf fbab a0be
000003f0: 0979 aabe 2156 7dbb 9304 9abe 091c 1fbe

lstm.bias_ih_l0 f4 [512]
-0.38773456 -0.41276318 -0.35138556 -0.2537221 -0.37133747 -0.5206563 -0.31725395 -0.48038316
-0.56279176 -0.6214896 -0.5988207 -0.47491255 -0.25055838 -0.11118348 -0.030696986 -0.07614463
-0.55376726 -0.06785584 -0.37885433 -0.16887139 -0.28364792 -0.021939423 -0.62521064 -0.30383366
-0.16512877 0.026617251 0.046547376 -0.3671527 0.013942571 -0.33088723 -0.5074766 -0.4212527
-0.31099817 -0.37273315 -0.1797192 -0.10153222 -0.4440222 -0.41131714 -0.23503618 -0.46074873
-0.6782525 -0.362787 -0.34916246 -0.21589312 -0.3027025 -0.09540333 -0.25200462 -0.20241557
-0.06659846 -0.5960689 -0.56724226 -0.1991161 -0.3064063 -0.24350028 -0.15929815 -0.30408132
-0.3019762 -0.3585502 -0.63376844 0.0053773015 -0.4412043 -0.36645687 -0.2206714 -0.13723157
-0.3956765 -0.40638912 0.07504027 -0.105269566 -0.011949317 -0.26802847 -0.22915784 -0.24651735
-0.34936765 -0.05370694 -0.39380857 -0.3480017 -0.3392074 -0.18078695 -0.18813261 -0.2845311
-0.493293 -0.20899546 -0.08947283 -0.19652565 -0.21051663 -0.39440447 -0.6757041 -0.41166165
-0.38918632 -0.32576606 -0.115832835 -0.31107208 -0.23976292 -0.021629997 -0.3972206 -0.39561963
-0.28951928 -0.07120154 -0.41020867 -0.47251117 -0.23448944 -0.0060367784 -0.39127037 -0.46313003
-0.48026344 -0.5515477 -0.61847556 -0.46091673 -0.20068198 -0.540668 -0.35171807 -0.36559573
-0.30710697 -0.3967679 0.078008495 -0.50831556 -0.09410906 -0.48179445 -0.046963084 -0.5910394
-0.6924251 -0.20648456 0.035105098 -0.39519945 -0.48896557 -0.15528803 -0.62353647 -0.3560296
-0.14935097 -0.46545598 -0.21108045 -0.36717924 0.12498497 -0.35964453 0.22968064 -0.08109034
0.020878823 -0.3729604 0.17935573 -0.14328441 -0.23246798 -0.14506945 -0.058730975 -0.31230998
-0.20389405 -0.29857892 -0.46820056 -0.21405527 -0.035881467 -0.50142205 -0.47797108 -0.295666
0.14470181 -0.03200439 0.20705345 -0.23851374 -0.2542151 0.10903615 -0.4079749 -0.54027164
0.037250232 -0.38548014 -0.11941777 0.08614044 -0.46189278 -0.16982424 -0.35339877 -0.48201984
0.14449091 -0.24588834 0.06536375 -0.17370963 -0.2226035 -0.3729575 -0.31961074 -0.4429242
0.01039613 -0.20938806 -0.29204437 -0.16197161 -0.31448665 -0.36412546 -0.19304867 -0.014309875
-0.28063026 -0.18535393 -0.18650566 -0.06328515 0.10043296 0.16596594 0.15829366 0.092895895
-0.28505117 -0.24902022 -0.262173 0.09580533 -0.12652582 -0.37773553 -0.3533906 -0.4184948
-0.36054945 -0.11730538 -0.10065981 -0.45238346 -0.054390203 -0.30912808 -0.28328294 -0.1274619
-0.16170579 -0.42805913 0.09590778 -0.5121289 -0.5593138 0.11175952 -0.20117705 0.1981589
-0.59213704 -0.196064 -0.0035278513 0.1544328 -0.07411987 -0.66744304 -0.100950345 -0.29180238
-0.3880528 0.08142226 -0.23615909 -0.19577405 -0.4237885 0.14722936 -0.1058857 -0.2327606
-0.1774146 -0.36320087 -0.04498515 -0.29466173 -0.14900072 -0.41883618 -0.07412104 -0.24875627
-0.29615027 -0.32622242 -0.14120516 0.19718377 -0.07818342 -0.44201848 -0.28934035 -0.09013478
-0.0386672 -0.26914388 -0.5756667 -0.3793205 -0.2979429 0.28753215 -0.38152903 -0.28077117
00000000: 2585 c6be b255 d3be cfe8 b3be dde7 81be
00000010: f21f bebe bb49 05bf 1c6f a2be c8f4 f5be
00000020: 1f13 10bf f119 1fbf 504c 19bf bd27 f3be
00000030: 3049 80be 2ab4 e3bd 3f78 fbbc b7f1 9bbd
00000040: b1c3 0dbf 01f8 8abd 32f9 c1be 9fec 2cbe
00000050: 4d3a 91be 4eba b3bc ce0d 20bf 1690 9bbe
00000060: 8417 29be 6c0c da3c 76a8 3e3d 70fb bbbe
00000070: 626f 643c 0d6a a9be fde9 01bf 6fae d7be
00000080: 273b 9fbe e1d6 bebe 4f08 38be 20f0 cfbd
00000090: e156 e3be 2998 d2be 53ad 70be 42e7 ebbe
000000a0: f5a1 2dbf 38bf b9be 6cc5 b2be 1613 5dbe
000000b0: d2fb 9abe d262 c3bd c006 81be 0746 4fbe
000000c0: c664 88bd f997 18bf ca36 11bf 17e5 4bbe
000000d0: 49e1 9cbe 2358 79be 0e1f 23be 8cb0 9bbe
000000e0: a09c 9abe e493 b7be a63e 22bf 1334 b03b
000000f0: 88e5 e1be 3ca0 bbbe aff7 61be 6f86 0cbe
00000100: 1c96 cabe 3c12 d0be b7ae 993d 9297 d7bd
00000110: 11c7 43bc 073b 89be 5aa8 6abe 0b6f 7cbe
00000120: 51e0 b2be cffb 5bbd 47a1 c9be 472d b2be
00000130: 98ac adbe 3720 39be d6a5 40be 0fae 91be
00000140: e690 fcbe e802 56be 883d b7bd 053e 49be
00000150: ac91 57be 62ef c9be f2fa 2cbf 51c5 d2be
00000160: 6e43 c7be cfca a6be c439 edbd d744 9fbe
00000170: 6984 75be 6431 b1bc 8060 cbbe a88e cabe
00000180: df3b 94be 1dd2 91bd df06 d2be fcec f1be
00000190: 001e 70be 2bd0 c5bb 9754 c8be 611f edbe
000001a0: 17e5 f5be 3b32 0dbf 6a54 1ebf 47fd ebbe
000001b0: 947f 4dbe 3869 0abf 6414 b4be 5d2f bbbe
000001c0: 203d 9dbe 2a25 cbbe ebc2 9f3d f820 02bf
000001d0: 40bc c0bd c3ad f6be 5d5c 40bd 5c4e 17bf
000001e0: c542 31bf b070 53be 5dca 0f3d 9557 cabe
000001f0: b259 fabe d303 1fbe 16a0 1fbf 8349 b6be
00000200: 76ef 18be 3f50 eebe 7925 58be ebfe bbbe
00000210: 1ff8 ff3d 5423 b8be 6731 6b3e b112 a6bd
00000220: 110a ab3c aaf4 bebe 07a9 373e 26b9 12be
00000230: 160c 6ebe 168d 14be e48f 70bd 18e7 9fbe
00000240: 9ac9 50be 56df 98be fcb7 efbe 4e31 5bbe
00000250: 72f8 12bd 325d 00bf a0b8 f4be 8961 97be
00000260: b62c 143e 0917 03bd d205 543e f23c 74be
00000270: 7b28 82be 584e df3d 16e2 d0be 3e4f 0abf
00000280: b393 183d a75d c5be 4e91 f4bd 666a b03d
00000290: 367d ecbe 68e6 2dbe aff0 b4be 4ecb f6be
000002a0: 6df5 133e 27ca 7bbe 6edd 853d f0e0 31be
000002b0: 2cf2 63be 49f4 bebe 05a4 a3be f6c6 e2be
000002c0: 8854 2a3c d369 56be d786 95be e3db 25be
000002d0: 6504 a1be a76e babe 8dae 45be f773 6abc
000002e0: c5ae 8fbe 6ccd 3dbe 57fb 3ebe a59b 81bd
000002f0: ccaf cd3d faf2 293e bc17 223e 3440 be3d
00000300: 3af2 91be 28ff 7ebe 8a3b 86be 9635 c43d
00000310: fc8f 01be 8d66 c1be 9def b4be f344 d6be
00000320: f099 b8be ce3d f0bd bb26 cebd ce9e e7be
00000330: 43c8 5ebd 0946 9ebe 760a 91be 5f85 02be
00000340: 3496 25be 912a dbbe 4c6b c43d e11a 03bf
00000350: 302f 0fbf 2de2 e43d 5b01 4ebe 2bea 4a3e
00000360: 4b96 17bf 00c5 48be 8633 67bb a223 1e3e
00000370: 29cc 97bd 8cdd 2abf 0ebf cebd 1f67 95be
00000380: dbae c6be b7c0 a63d b0d3 71be fe78 48be
00000390: cefa d8be 4bc3 163e 9ada d8bd cb58 6ebe
000003a0: 2cac 35be 77f5 b9be 5942 38bd e7dd 96be
000003b0: a593 18be b271 d6be c6cc 97bd f7b9 7ebe
000003c0: 02a1 97be a006 a7be 1698 10be 8bea 493e
000003d0: a11e a0bd 3f50 e2be 6b24 94be 9598 b8bd
000003e0: 7f61 1ebd 3acd 89be e55e 13bf 4c36 c2be
000003f0: f98b 98be 6a37 933e c657 c3be 3dc1 8fbe

lstm.bias_hh_l0 f4 [512]
-0.28741005 -0.5755294 -0.30476108 -0.3563141 -0.2822712 -0.6089823 -0.33137557 -0.44696882
-0.48965272 -0.5892443 -0.69381875 -0.43675846 -0.23135412 -0.12420383 -0.06937683 -0.09645491
-0.49934945 0.056650862 -0.41467378 -0.1586242 -0.32444888 0.02461542 -0.76034427 -0.23407388
-0.18406998 0.062023904 -0.035189983 -0.37073225 0.054159787 -0.2511385 -0.39747265 -0.41851416
-0.2847907 -0.3656695 -0.20964381 -0.08327619 -0.4847739 -0.38877013 -0.31076753 -0.3708455
-0.55972576 -0.3031645 -0.42678878 -0.20154785 -0.29941526 -0.0021603778 -0.20705506 -0.21092421
0.0026756495 -0.6040843 -0.5620136 -0.28850484 -0.29308847 -0.17223796 -0.10963308 -0.36226422
-0.29926962 -0.34790072 -0.5324817 -0.04271829 -0.4256309 -0.4549047 -0.212654 -0.0764665
-0.22798489 -0.41003013 0.05006046 -0.11069429 0.08060581 -0.24547125 -0.22535025 -0.25690734
-0.4208808 -0.20529972 -0.50689906 -0.40242317 -0.24250267 -0.11564771 -0.1718632 -0.3396996
-0.41543552 -0.2024707 -0.16413018 -0.2686227 -0.255528 -0.4945573 -0.6982122 -0.4164705
-0.4479837 -0.2206255 -0.13775024 -0.21560849 -0.08448405 -0.10663218 -0.31540915 -0.31837982
-0.3644732 0.0076383497 -0.2785799 -0.48219672 -0.2262473 0.1389463 -0.4117866 -0.3704967
-0.49118748 -0.48428202 -0.5764188 -0.49935368 -0.19584249 -0.5253481 -0.36468634 -0.4645576
-0.25974786 -0.43039092 0.04700395 -0.58851945 -0.0027150535 -0.5670716 -0.07491015 -0.55546707
-0.66509426 -0.13771826 -0.010073497 -0.35705453 -0.4360047 -0.047099996 -0.761306 -0.32554704
-0.21818823 -0.5608417 -0.14444761 -0.2859298 0.08183188 -0.3287022 0.23828882 -0.12377775
-0.0021003056 -0.25909457 0.07635052 -0.15339293 -0.28624806 -0.13899486 -0.07197282 -0.32469139
-0.14469773 -0.2706947 -0.4854458 -0.24679044 -0.10410181 -0.3527823 -0.45063418 -0.23177198
0.1589257 0.054840267 0.1834504 -0.21320793 -0.40137577 0.117802 -0.31110623 -0.52994835
0.1476927 -0.34812635 -0.1582022 -0.008225618 -0.46775398 -0.07457784 -0.27781332 -0.37060946
0.091697596 -0.23992226 0.04989309 -0.17809403 -0.23397903 -0.3588955 -0.37797672 -0.4829637
0.09471894 -0.1043574 -0.2803736 -0.1912674 -0.35183418 -0.21960996 -0.14947774 0.0286918
-0.24868396 -0.2387843 -0.31304413 -0.027789712 0.16151209 0.19331309 0.063601136 0.122382246
-0.2867894 -0.22507198 -0.2077804 -0.004546453 -0.12862594 -0.38363212 -0.18319891 -0.32794276
-0.46839362 -0.23271252 -0.21118575 -0.44716364 0.05449427 -0.3985415 -0.22576793 -0.17906067
-0.17833239 -0.51716065 0.03140013 -0.40208223 -0.4961201 0.14385892 -0.26453635 0.16386874
-0.5292847 -0.110341445 0.017394371 0.05402258 -0.046388596 -0.6542764 0.02406771 -0.34431502
-0.21915153 0.23810866 -0.21601263 -0.22797945 -0.4495858 0.19460644 -0.11012747 -0.23547731
-0.18537022 -0.31673625 -0.07400914 -0.36248428 -0.061256193 -0.30393967 -0.11761078 -0.23719192
-0.42641756 -0.2920984 -0.1687056 0.27814853 -0.005018389 -0.36794814 -0.19350204 -0.0039583426
-0.09051886 -0.31494942 -0.5136755 -0.33478844 -0.3065769 0.3958319 -0.28530872 -0.288768
00000000: 6927 93be e555 13bf a509 9cbe cd6e b6be
00000010: da85 90be 44e6 1bbf 0faa a9be 19d9 e4be
00000020: c3b3 fabe b7d8 16bf 1b9e 31bf ce9e dfbe
00000030: 18e8 6cbe 945e febd 7015 8ebd 278a c5bd
00000040: bbaa ffbe bc0a 683d 1f50 d4be 626e 22be
00000050: 2a1e a6be 47a6 c93c eca5 42bf 10b1 6fbe
00000060: d77c 3cbe c70c 7e3d 5f23 10bd 9ed0 bdbe
00000070: a7d6 5d3d 3a95 80be 8981 cbbe 7d47 d6be
00000080: 16d0 91be 0839 bbbe deac 56be b58c aabd
00000090: 4934 f8be e10c c7be ec1c 9fbe 76df bdbe
000000a0: 304a 0fbf 6138 9bbe 0f84 dabe 8f62 4ebe
000000b0: f54c 99be 2095 0dbb 3e06 54be 84fc 57be
000000c0: f359 2f3b 45a5 1abf 20e0 0fbf e8b6 93be
000000d0: b10f 96be 265f 30be 4f87 e0bd b27a b9be
000000e0: de39 99be 0b20 b2be b850 08bf 60f9 2ebd
000000f0: 4bec d9be 45e9 e8be f8c1 59be 789a 9cbd
00000100: df74 69be 78ef d1be 320c 4d3d b0b3 e2bd
00000110: a914 a53d d15c 7bbe 37c2 66be 5c89 83be
00000120: b07d d7be 173a 52be 23c4 01bf 690a cebe
00000130: 9f52 78be b5d8 ecbd e8fc 2fbe 1bed adbe
00000140: f7b3 d4be 7b54 4fbe be11 28be ea88 89be
00000150: 91d4 82be 9d36 fdbe 09be 32bf 9f3b d5be
00000160: 1f5e e5be a7eb 61be 660e 0dbe 79c8 5cbe
00000170: f905 adbd f961 dabd 4f7d a1be ae02 a3be
00000180: 3b9c babe 1f4b fa3b 06a2 8ebe 7de2 f6be
00000190: 5fad 67be f047 0e3e b1d5 d2be beb1 bdbe
000001a0: ed7c fbbe d0f3 f7be 2f90 13bf 49ab ffbe
000001b0: ef8a 48be 377d 06bf 2bb8 babe 7eda edbe
000001c0: acfd 84be 335c dcbe 3787 403d 36a9 16bf
000001d0: 0aef 31bb 9b2b 11bf 7e6a 99bd 1733 0ebf
000001e0: 9e43 2abf 0406 0dbe 4f0b 25bc dacf b6be
000001f0: 023c dfbe edeb 40bd f3e4 42bf 1aae a6be
00000200: bc6c 5fbe 5293 0fbf 13ea 13be 6465 92be
00000210: 7997 a73d a84b a8be fc01 743e 307f fdbd
00000220: 48a5 09bb 0ba8 84be a95d 9c3d 0913 1dbe
00000230: 1b8f 92be ab54 0ebe 7c66 93bd f33d a6be
00000240: a42b 14be 7f98 8abe 5a8c f8be a2b6 7cbe
00000250: 5433 d5bd e29f b4be 86b9 e6be a255 6dbe
00000260: 6bbd 223e 30a0 603d 6cda 3b3e 2e53 5abe
00000270: 2081 cdbe 2d42 f13d 5149 9fbe b2aa 07bf
00000280: c13c 173e 9e3d b2be c2ff 21be bec4 06bc
00000290: 737d efbe 44bc 98bd 8c3d 8ebe 86c0 bdbe
000002a0: f3cb bb3d 2eae 75be b25c 4c3d 485e 36be
000002b0: 3398 6fbe 27c1 b7be 2a86 c1be 0547 f7be
000002c0: 01fc c13d 55b9 d5bd 218d 8fbe 9adb 43be
000002d0: 9c23 b4be 6fe1 60be b110 19be 110b eb3c
000002e0: 02a7 7ebe df83 74be 5247 a0be 40a7 e3bc
000002f0: 6d63 253e def3 453e 5041 823d 8ba3 fa3d
00000300: 0fd6 92be 4579 66be 63c4 54be 69fa 94bb
00000310: 85b6 03be 6e6b c4be 7f98 3bbe 1de8 a7be
00000320: 4ad1 efbe 314c 6ebe 1441 58be a2f2 e4be
00000330: 6235 5f3d a20d ccbe b52f 67be ae5b 37be
00000340: c49c 36be a464 04bf 6c9d 003d b9dd cdbe
00000350: 7403 febe c14f 133e 4f71 87be 35cd 273e
00000360: 347f 07bf b2fa e1bd a47e 8e3c c846 5d3d
00000370: f801 3ebd a87e 27bf a529 c53c 0f4a b0be
00000380: 4269 60be c2d2 733e 6a32 5dbe 7273 69be
00000390: 1c30 e6be e946 473e 838a e1bd f720 71be
000003a0: b1d1 3dbe 412b a2be 1b92 97bd 8a97 b9be
000003b0: c6e7 7abd fb9d 9bbe ecdd f0bd 70e2 72be
000003c0: 6753 dabe ec8d 95be 29c1 2cbe 7c69 8e3e
000003d0: 4c71 a4bb b363 bcbe 6625 46be fcb4 81bb
000003e0: f461 b9bd 0d41 a1be 3d80 03bf 6469 abbe
000003f0: a6f7 9cbe 7baa ca3e fc13 92be 66d9 93be

lstm.weight_ih_l1 f4 [512, 128]
0.031217277 -0.14621824 -0.7371703 0.38593608 -0.6508064 -0.4823291 0.41457787 0.07856889
0.2346198 -0.0865488 -0.29421857 0.0659895 0.28146267 -0.5159245 0.22496584 -0.09618662
-0.35433275 -0.62776905 -0.3760585 0.32479438 0.30592734 0.011752737 -0.14727092 -0.34543046
0.63432777 -0.30891356 0.35082585 0.6106805 -0.15631577 -0.18033333 0.032356765 -0.21212035
-0.24264619 -0.44544065 -0.30801192 -0.18299155 -0.3489386 0.3418743 -0.15589361 0.6113243
0.02039615 -0.29277366 0.063320056 0.3797043 -0.8546384 -0.29725903 -0.21704388 0.015844855
-0.41478977 -0.95924044 0.44735327 -0.0130898785 0.28296438 -0.01961913 -0.28845406 -0.7822331
-0.15343767 -0.4232555 -0.29522634 -0.08915372 -0.02989316 0.003843717 -1.1323884 0.12282769
-0.36396623 -0.5020922 -0.117507674 0.028590022 -0.47651976 0.22544006 -0.28725225 0.2380774
-0.26376736 0.06225966 0.1781524 0.50840676 -0.5664572 -0.39234856 0.25449452 -0.07845559
0.36132285 0.7299934 0.44798315 -0.41986442 -0.5249784 0.75990844 -0.25576434 0.5385249
0.07661041 -0.60581374 0.5975411 -0.3159279 -0.8400458 -0.5062126 0.067394346 0.22746703
0.43861187 0.54000413 0.43477786 1.0482434 0.5436065 0.4445208 0.0027318436 0.6185931
-0.2804187 -0.7317167 0.2977405 0.3517586 0.46940392 -0.22558159 0.12856752 0.18221985
0.09414558 0.051159415 -0.35797557 -0.8758814 -0.4380423 -0.06738648 0.005361608 0.25929856
-0.5659904 -0.108304635 0.22991353 -0.060607586 -0.18079296 0.360714 -0.032989435 -0.86093956
0.4298595 0.17967968 0.32544345 0.16720669 -0.034748152 -0.17302936 -0.55060244 0.07954718
0.24582723 0.06811058 -0.025807407 0.19658656 -0.13252455 -0.0036810422 -0.15386856 -0.12834889
0.5528691 0.29338253 -0.020895803 0.15028995 -0.13850701 -0.26335526 0.034328595 -0.17949913
-0.027297972 -0.21212138 0.2123652 -0.2502593 -0.39879593 0.16524361 0.019328455 -0.110021606
-0.05776384 0.31673795 0.12757243 0.25364077 -0.20775272 -0.02952837 0.18980016 0.06054415
0.03744905 0.21139938 0.016598228 0.0057088933 0.09853637 -0.38397154 0.029268207 -0.031049011
0.05271651 0.17782973 -0.2868256 -0.010494342 0.061848085 0.26292136 0.18343115 0.07772258
0.2803025 0.1067486 0.49202818 -0.16886796 -0.2820121 -0.43219557 -0.25782096 0.47896677
0.5406859 0.18567376 0.060930647 -0.14479806 0.20461282 -0.59430915 0.2406798 0.22492291
0.09513183 0.08598421 0.1356323 -0.6116254 0.13919088 -0.26075804 -0.36182782 -0.06689836
-0.36030298 0.1675609 -0.061452873 -0.3843944 0.047710326 -0.2912106 -0.13679835 -0.25036293
0.25407085 0.24643956 0.35399616 -0.21745402 -0.09017565 0.6562442 -0.34139594 0.19995221
0.08632944 0.24448013 -0.039493494 0.45136973 -0.54392344 0.13292256 -0.17711702 0.004232555
0.19480437 0.014151291 0.1861658 -0.14653355 -0.32544526 -0.0014925945 -0.4143616 0.11679309
-0.021492563 -0.27272445 -0.15419209 0.2285192 0.08518134 0.15545097 0.09437264 0.18849649
-0.45332673 0.19004391 0.069179036 -0.3011031 0.30151442 -0.04833571 0.2515896 0.13550684
00000000: 60bb ff3c 3cba 15be 31b7 3cbf 6a99 c53e
00000010: 409b 26bf d7f3 f6be 8d43 d43e bae8 a03d
00000020: 2c40 703e 7f40 b1bd d1a3 96be 8125 873d
00000030: e01b 903e a113 04bf 725d 663e 7efd c4bd
00000040: 1a6b b5be 79b5 20bf bd8a c0be 734b a63e
00000050: 82a2 9c3e 8d8e 403c 30ce 16be 43dc b0be
00000060: 4e63 223f eb29 9ebe 729f b33e 8f55 1c3f
00000070: 3e11 20be 4da9 38be 8788 043d 1436 59be
00000080: 3e78 78be cc10 e4be bdb3 9dbe 2362 3bbe
00000090: 15a8 b2be 260a af3e 93a2 1fbe c07f 1c3f
000000a0: d415 a73c 6ee6 95be f2ad 813d 9a68 c23e
000000b0: 95c9 5abf 5632 98be c040 5ebe 12cd 813c
000000c0: 535f d4be c890 75bf 7d0b e53e ee76 56bc
000000d0: b5e0 903e 4cb8 a0bc 40b0 93be 6e40 48bf
000000e0: c41e 1dbe f2b4 d8be e827 97be 3a96 b6bd
000000f0: 80e2 f4bc dfe6 7b3b 1af2 90bf 158d fb3d
00000100: c859 babe 1d89 00bf dda7 f0bd 9f35 ea3c
00000110: 66fa f3be c2d9 663e ba12 93be 90ca 733e
00000120: 840c 87be fc03 7f3d 956d 363e f226 023f
00000130: 5703 11bf e9e1 c8be 1b4d 823e 53ad a0bd
00000140: 4fff b83e d9e0 3a3f 0c5e e53e 78f8 d6be
00000150: fc64 06bf 5c89 423f 8bf3 82be c5dc 093f
00000160: ebe5 9c3d 9c16 1bbf 74f8 183f 4dc1 a1be
00000170: 3e0d 57bf 2697 01bf 0c06 8a3d 1eed 683e
00000180: bc91 e03e b63d 0a3f 349b de3e d72c 863f
00000190: cc29 0b3f 3b98 e33e bb08 333b 1e5c 1e3f
000001a0: 0a93 8fbe c951 3bbf 7171 983e b419 b43e
000001b0: b655 f03e dcfe 66be 34a7 033e d797 3a3e
000001c0: 66cf c03d 898c 513d 9348 b7be c339 60bf
000001d0: 1547 e0be ec01 8abd 6eb0 af3b c8c2 843e
000001e0: bfe4 10bf d2ce ddbd 746e 6b3e a93f 78bd
000001f0: ca21 39be 81af b83e ee1f 07bd 8966 5cbf
00000200: 8b16 dc3e f3fd 373e 86a0 a63e 3b38 2b3e
00000210: 1454 0ebd 9c2e 31be 48f4 0cbf a2e9 a23d
00000220: 22ba 7b3e 8f7d 8b3d 0e6a d3bc fd4d 493e
00000230: 84b4 07be a43d 71bb b88f 1dbe e46d 03be
00000240: d488 0d3f 3c36 963e ad2d abbc 9ce5 193e
00000250: c8d4 0dbe 80d6 86be 249c 0c3d 9fce 37be
00000260: ff9f dfbc 5936 59be 4376 593e fd21 80be
00000270: fb2e ccbe 9f35 293e b556 9e3c 0253 e1bd
00000280: c799 6cbd 7a2b a23e 59a2 023e 34dd 813e
00000290: 21bd 54be 7be5 f1bc f95a 423e 25fd 773d
000002a0: 2d64 193d 1479 583e 02f9 873c ab11 bb3b
000002b0: 70cd c93d eb97 c4be e1c3 ef3c 7f5a febc
000002c0: 44ed 573d ff18 363e ceda 92be 76f0 2bbc
000002d0: 6b54 7d3d a19d 863e 60d5 3b3e 042d 9f3d
000002e0: cf83 8f3e 039f da3d 1eeb fb3e b9eb 2cbe
000002f0: e463 90be bd48 ddbe 1c01 84be 223b f53e
00000300: 646a 0a3f 4321 3e3e 6a92 793d f145 14be
00000310: 0686 513e a524 18bf c474 763e 3152 663e
00000320: 7ad4 c23d 7d18 b03d 32e3 0a3e 7b93 1cbf
00000330: 0e88 0e3e 1482 85be 7f41 b9be 0202 89bd
00000340: a279 b8be 1695 2b3e 02b6 7bbd 58cf c4be
00000350: e76b 433d 8e19 95be de14 0cbe 922f 80be
00000360: 9315 823e a75a 7c3e fc3e b53e 44ac 5ebe
00000370: 03ae b8bd 9fff 273f 73cb aebe 46c0 4c3e
00000380: 7dcd b03d 0059 7a3e eec3 21bd ef19 e73e
00000390: 913e 0bbf da1c 083e 2a5e 35be 3fb1 8a3b
000003a0: cc7a 473e d1da 673c 3fa2 3e3e e40c 16be
000003b0: c3a0 a6be 29a3 c3ba 3427 d4be 3731 ef3d
000003c0: 2c11 b0bc 8aa2 8bbe 88e4 1dbe f000 6a3e
000003d0: 8e73 ae3d 8a2e 1f3e 7146 c13d 3905 413e
000003e0: 711a e8be df9a 423e bdad 8d3d 2f2a 9abe
000003f0: 1960 9a3e aafb 45bd 5ad0 803e 4ec2 0a3e

lstm.weight_hh_l1 f4 [512, 128]
-0.16002244 0.053199608 -0.04147767 0.02188845 0.013216892 -0.07832332 -0.4962553 0.25831288
0.2453843 -0.34370002 0.5484388 -0.1847713 0.19923279 -0.49095467 0.14354268 -0.38733292
0.06599762 -0.36982095 -0.0005547213 -0.110996254 -0.08443019 0.19025598 -0.14684336 -0.16296661
0.025159163 0.009630725 -0.316243 0.02593731 -0.19062835 -0.28973666 0.25001964 -0.36798567
-0.18637224 0.67206174 -0.07968819 -0.31417936 0.23920391 0.21146539 -0.06083814 -0.33705154
-0.6094501 0.5105892 0.058863364 0.15862866 -0.12860747 -0.315727 0.22410013 0.13255091
0.0046763537 -0.36884788 -0.03428331 0.39100772 0.17724364 -0.36279404 0.29882434 0.09845842
-0.12553078 0.17107613 -0.05911019 -0.13579074 -0.2396035 0.16145019 0.17430381 -0.084592685
-0.33100083 0.18399635 -0.30355883 -0.17154379 -0.22509049 0.13917537 -0.07537468 -0.34044653
-0.008645138 -0.083353385 0.21004477 -0.04151556 0.28178248 0.757601 -0.42108527 -0.3706805
-0.3358928 0.036472876 -0.38281134 -0.20851374 -0.26137117 -0.15784198 -0.06887991 0.026570356
-0.018068407 -0.263601 0.242183 0.3920256 -0.1526165 -0.06868548 -0.2561869 0.051747482
0.14055014 0.017690953 -0.21251416 0.6270664 0.084468275 -0.09832887 0.1311486 0.02228817
0.0937059 -0.13097998 0.10725676 0.12074958 -0.34608778 -0.084861286 0.42487514 0.24428135
0.03139809 0.39106452 -0.036093555 -0.26928255 0.15169694 -0.16871874 0.21132496 -0.1554307
-0.19492564 -0.19531214 0.2594812 0.02007574 -0.16859925 0.15934214 -0.32643294 0.20646293
-0.19966686 0.09503338 -0.34544662 0.008770529 0.38829365 0.14690115 0.06155596 0.3063438
-0.3771977 -0.13605256 -0.19278823 0.21175054 -0.39100775 0.23571253 0.8947397 -0.1455413
0.082837746 0.41360408 -0.17229304 0.15123077 -0.5030704 -0.16837318 -0.2177477 -0.34235826
0.44412693 -0.0032629732 0.29871866 -0.3487313 0.6188573 -0.32905632 0.050856948 0.8580314
-0.17459035 0.116048425 -0.260969 0.34530923 -0.22733809 -0.0010945578 0.2800266 0.05038193
-0.6841697 -0.3248309 -0.13749838 -0.07381714 -0.5160888 0.3439475 -0.19552042 0.12874377
0.1168863 -0.20833461 -0.5500728 0.3150752 0.42530495 -0.37541607 0.07281773 0.8307172
-0.21765678 0.03089592 0.22779094 -0.0010626606 0.24577178 0.3295541 0.33862272 0.15119411
0.64739835 0.20610267 0.37963176 0.305664 -0.45332143 0.39765754 -0.07529836 0.07419968
0.24997601 0.06039602 0.5142384 0.08320152 0.04657425 0.17653807 -0.050271623 -0.48284036
-0.6290875 -0.41525665 0.06981427 -0.30039784 0.22528346 0.3286751 0.05576599 -0.60756445
-0.14216019 -0.47505745 -0.33077404 -0.061100394 -0.0047760257 -0.6490392 -0.098732196 0.262589
-0.1198297 -0.4690154 -0.058164395 -0.38108435 -0.20157975 -0.4558341 -0.2900555 -0.43332496
-0.2460843 0.64730006 -0.19708255 -0.058649935 0.3452755 0.025164708 -0.35213453 -0.30665636
-1.1088027 0.55786335 -0.1746029 0.3128805 0.106643796 0.3150675 0.32044092 0.5603126
-0.11196255 0.1912107 0.042664833 -0.037445653 0.37829855 -0.5437653 0.36813256 -0.24191126
00000000: ecdc 23be d5e7 593d 7de4 29bd 684f b33c
00000010: aa8b 583c fa67 a0bd 2d15 febe 9641 843e
00000020: 0646 7b3e 73f9 afbe 7c66 0c3f b034 3dbe
00000030: ae03 4c3e 695e fbbe dafc 123e 8050 c6be
00000040: c329 873d 2c59 bdbe b76a 11ba 0152 e3bd
00000050: bce9 acbd 77d2 423e 1b5e 16be b8e0 26be
00000060: 971a ce3c 30ca 1d3c 9aea a1be 7b7a d43c
00000070: 1434 43be 5d58 94be 9302 803e 9e68 bcbe
00000080: 5dd8 3ebe 3d0c 2c3f 9033 a3bd 1edc a0be
00000090: dff1 743e 628a 583e 6a31 79bd 0592 acbe
000000a0: ec04 1cbf f9b5 023f b61a 713d 8d6f 223e
000000b0: adb1 03be f8a6 a1be 817a 653e 6dbb 073e
000000c0: 193c 993b a1d9 bcbe a86c 0cbd 2a32 c83e
000000d0: 5b7f 353e 24c0 b9be 81ff 983e 91a4 c93d
000000e0: 248b 00be 952e 2f3e 871d 72bd ba0c 0bbe
000000f0: 9f5a 75be 3353 253e b37c 323e ee3e adbd
00000100: f178 a9be 8a69 3c3e 106c 9bbe 2da9 2fbe
00000110: 1f7e 66be fd83 0e3e 0a5e 9abd 024f aebe
00000120: 56a4 0dbc 2eb5 aabd fa15 573e 380c 2abd
00000130: cb45 903e 24f2 413f 7d98 d7be d6c9 bdbe
00000140: 24fa abbe 9564 153d d9ff c3be a084 55be
00000150: 71d2 85be 54a1 21be e910 8dbd 13aa d93c
00000160: 3204 94bc b6f6 86be d2fe 773e 94b7 c83e
00000170: 8047 1cbe f9aa 8cbd ee2a 83be 2bf5 533d
00000180: 60ec 0f3e 9eec 903c 509d 59be 6c87 203f
00000190: b4fd ac3d a660 c9bd d24b 063e ae95 b63c
000001a0: e1e8 bf3d 9e1f 06be 6fa9 db3d 8e4b f73d
000001b0: 6b32 b1be c1cb adbd 3c89 d93e e424 7a3e
000001c0: 499b 003d 9c39 c83e d6d6 13bd 67df 89be
000001d0: 7156 1b3e 9bc4 2cbe 9265 583e 3a29 1fbe
000001e0: 969a 47be e8ff 47be b8da 843e e175 a43c
000001f0: 48a5 2cbe 962a 233e 3822 a7be 056b 533e
00000200: 7875 4cbe dca0 c23d 61de b0be 44b2 0f3c
00000210: 6dce c63e 416d 163e 1a22 7c3d 18d9 9c3e
00000220: 0f20 c1be 5d51 0bbe 476a 45be 22d5 583e
00000230: 2b32 c8be a05e 713e a90d 653f c708 15be
00000240: d6a6 a93d eac3 d33e 966d 30be 3ddc 1a3e
00000250: 39c9 00bf 056a 2cbe 41f9 5ebe 9549 afbe
00000260: 9b64 e33e 9bd7 55bb a7f1 983e e98c b2be
00000270: 6f6d 1e3f 127a a8be 604f 503d f2a7 5b3f
00000280: d0c7 32be ccaa ed3d bb9d 85be 5fcc b03e
00000290: 51cb 68be 4477 8fba a65f 8f3e 485d 4e3d
000002a0: bf25 2fbf 3c50 a6be 60cc 0cbe 712d 97bd
000002b0: 651e 04bf e319 b03e 8136 48be 68d5 033e
000002c0: 1662 ef3d ab55 55be 92d1 0cbf 8951 a13e
000002d0: 92c1 d93e 8936 c0be 7621 953d e2a9 543f
000002e0: 6be1 5ebe 7119 fd3c 0742 693e f948 8bba
000002f0: 99ab 7b3e 51bb a83e f55f ad3e a1d2 1a3e
00000300: e6bb 253f 940c 533e 185f c23e fe7f 9c3e
00000310: bf19 e8be c599 cb3e 0736 9abd 00f6 973d
00000320: b6f9 7f3e d161 773d 21a5 033f 8f65 aa3d
00000330: a4c4 3e3d 65c6 343e 9ee9 4dbd da36 f7be
00000340: e10b 21bf 859c d4be c9fa 8e3d bfcd 99be
00000350: b5b0 663e 1a48 a83e e16a 643d 5889 1bbf
00000360: 7192 11be bb3a f3be 375b a9be 6844 7abd
00000370: 3580 9cbb 6f27 26bf 1b34 cabd 1172 863e
00000380: 4669 f5bd c922 f0be ca3d 6ebd 7d1d c3be
00000390: ec6a 4ebe 1663 e9be 2882 94be c5dc ddbe
000003a0: 86fd 7bbe 75b5 253f 02d0 49be ea3a 70bd
000003b0: f3c7 b03e 3826 ce3c fa4a b4be 1002 9dbe
000003c0: 3fed 8dbf 22d0 0e3f 1acb 32be df31 a03e
000003d0: 1068 da3d 8750 a13e d510 a43e a670 0f3f
000003e0: 9f4c e5bd bdcc 433e 52c1 2e3d 9d60 19bd
000003f0: 59b0 c13e 3434 0bbf df7b bc3e 96b7 77be

lstm.bias_ih_l1 f4 [512]
-0.2930334 -0.24223119 -0.59236896 -0.253039 -0.07257814 -0.7160265 -0.52998954 -0.2156925
-0.013035433 -0.27011943 0.024313914 -0.32045305 -0.10166862 -0.2550542 0.095991805 -0.39678696
-0.60566646 -0.6895722 0.026004206 -0.43654317 -0.48890615 -0.30990493 -0.43464756 -0.2988989
0.09986982 -0.4442995 -0.27367103 -0.3716162 -0.04536129 -0.44195825 0.09764534 0.3768528
-0.20532687 0.24709636 -0.051749997 -0.63228613 -0.2762688 -0.3171953 0.18834724 -0.017260574
-0.24482965 0.039747432 -0.30972967 -0.40210176 0.18481253 -0.66334176 -0.33893234 -0.6418407
-0.4740168 -0.32487836 -0.13472961 -0.42956454 -0.4405963 -0.055325188 -0.1239283 0.1828241
0.021345712 -0.15602121 -0.14382455 -0.13728537 -0.6862385 -0.3579599 0.17376892 -0.18727158
-0.0032682724 -0.71068066 0.20403713 -0.3312616 0.07393228 -0.045728568 -0.5281185 -0.2205727
-0.55092615 -0.05186006 -0.28478375 -0.51440555 -0.39128324 0.036997024 -0.13395216 -0.38246748
-0.17762057 0.13125654 -0.13324699 -0.5241555 -0.6157948 -0.059909537 -0.29335326 -0.30188924
-0.15553255 -0.31707224 -0.32159352 -0.5733373 -0.17710467 0.107410565 0.20665205 -0.06927187
-0.3661765 -0.17863011 0.23687594 0.024667924 -0.22041054 -0.68565416 -0.6815885 0.2556905
-0.18833327 -0.21281306 -0.17905957 -0.044904348 0.118149705 -0.21904454 0.093790166 0.19107246
0.265802 -0.24083477 0.20012838 -0.58594257 -0.27460423 -0.35770753 -0.0096066585 -0.34608445
0.16379674 -0.40709716 -0.2900778 -0.41119012 -0.3742493 -0.16585538 -0.16902716 -0.10925769
-0.023164285 0.4108461 -0.1472163 0.13939084 0.13511766 -0.2389331 0.018517876 0.27846906
0.24732205 -0.08895041 0.007140869 0.04947518 0.20930904 0.63192666 0.23841535 -0.02710384
-0.085135184 0.28118274 0.041115858 -0.20373087 -0.030160274 0.098391764 -0.110837445 -0.033212014
0.40506455 0.22006802 -0.17777084 0.26344287 0.06519247 -0.016550021 -0.13733327 0.12223401
0.15530139 -0.025778672 0.2920637 -0.23509079 0.15265724 0.16533595 0.44210702 0.07482726
-0.15765432 0.68328714 0.1845291 -0.047752623 0.34162763 -0.08747202 -0.067717284 -0.31517282
0.32986477 0.13334861 0.2996271 -0.14058766 0.53897536 0.13545436 0.17396688 0.49506018
0.5906748 0.032158636 0.22852677 0.3313281 -0.043479208 -0.0292926 0.2669492 0.21625358
0.23936121 -0.031643648 -0.016891448 -0.039838884 0.27873772 0.18333602 0.37418124 0.14737152
0.41175452 -0.031543244 0.20686145 0.21210286 -0.1280228 0.092479765 -0.024264116 -0.29274872
0.46975878 -0.035966795 0.31534064 0.008446103 -0.2739577 -0.0038170519 -0.11463954 0.042360537
-0.010804115 0.27820557 -0.021401038 0.18056136 0.07342156 0.2964972 0.19875246 -0.081439555
-0.14277436 0.65950894 0.053173095 0.043249413 -0.08077397 0.383505 0.43835625 0.18654034
0.09724169 0.12355944 0.49906307 -0.18016157 0.2985695 -0.24737684 0.30926073 0.36505896
0.9029725 0.11722667 0.6536695 -0.03633342 -0.070189156 -0.055382557 0.0002662947 0.20995058
0.57743394 0.26702276 -0.4430458 -0.08875661 -0.09738101 0.17811434 0.12856929 0.48552352
00000000: 7908 96be 740b 78be 7ea5 17bf 548e 81be
00000010: d9a3 94bd 834d 37bf 65ad 07bf 7fde 5cbe
00000020: 9292 55bc 184d 8abe f92d c73c 6c12 a4be
00000030: a337 d0bd 7796 82be 5a97 c43d a927 cbbe
00000040: f50c 1bbf ce87 30bf c606 d53c 9682 dfbe
00000050: e851 fabe dcab 9ebe 208a debe 4709 99be
00000060: 8c88 cc3d 397b e3be 9c1e 8cbe 7b44 bebe
00000070: c3cc 39bd 5a48 e2be 48fa c73d daf2 c03e
00000080: 3541 52be d406 7d3e cef7 53bd 81dd 21bf
00000090: 1b73 8dbe 6c67 a2be 19de 403e 0c66 8dbc
000000a0: a0b4 7abe 34ce 223d e394 9ebe 48e0 cdbe
000000b0: 7f3f 3d3e c4d0 29bf 8a88 adbe ac4f 24bf
000000c0: 54b2 f2be 7556 a6be 8ff6 09be e2ef dbbe
000000d0: d795 e1be aa9c 62bd 1fce fdbd 3e36 3b3e
000000e0: 34dd ae3c 06c4 1fbe be46 13be 8994 0cbe
000000f0: 54ad 2fbf 8546 b7be 7bf0 313e 1fc4 3fbe
00000100: 8330 56bb 2bef 35bf 1cef 503e 1f9b a9be
00000110: cf69 973d e14d 3bbd c632 07bf cfdd 61be
00000120: 7f09 0dbf 376b 54bd 2dcf 91be 15b0 03bf
00000130: 4756 c8be 318a 173d c12a 09be c7d2 c3be
00000140: 2be2 35be 1d68 063e e671 08be 0e2f 06bf
00000150: baa4 1dbf b463 75bd 6632 96be 3a91 9abe
00000160: ed43 1fbe 4b57 a2be e8a7 a4be 3cc6 12bf
00000170: ed5a 35be 12fa db3d 989c 533e 69de 8dbd
00000180: 7c7b bbbe d0ea 36be 9b8f 723e 6314 ca3c
00000190: 4db3 61be 0887 2fbf 957c 2ebf dde9 823e
000001a0: 70da 40be abeb 59be 645b 37be 9fed 37bd
000001b0: 79f8 f13d 364d 60be 0f15 c03d 80a8 433e
000001c0: 3317 883e 649d 76be 74ee 4c3e 5500 16bf
000001d0: ed98 8cbe 7125 b7be 3f65 1dbc fb31 b1be
000001e0: 55ba 273e 0a6f d0be 1485 94be 8387 d2be
000001f0: 9b9d bfbe fed5 29be 7515 2dbe 7fc2 dfbd
00000200: 07c3 bdbc 6c5a d23e dfbf 16be 79bc 0e3e
00000210: 495c 0a3e e1aa 74be cdb2 973c 7f93 8e3e
00000220: fe41 7d3e a22b b6bd f3fd e93b 7da6 4a3d
00000230: 1c55 563e f2c5 213f 2723 743e df08 debc
00000240: 5b5b aebd 2ff7 8f3e 1a69 283d d39e 50be
00000250: ae12 f7bc 9f81 c93d befe e2bd 5209 08bd
00000260: 9f64 cf3e 8359 613e 8f09 36be fce1 863e
00000270: a183 853d e993 87bc 18a1 0cbe d355 fa3d
00000280: 5407 1f3e cb2d d3bc 6089 953e a4bb 70be
00000290: 2e52 1c3e d44d 293e da5b e23e 093f 993d
000002a0: 2270 21be e8eb 2e3f 32f5 3c3e 4198 43bd
000002b0: d1e9 ae3e 8824 b3bd 5caf 8abd 555e a1be
000002c0: 09e4 a83e 8a8c 083e b968 993e 36f6 0fbe
000002d0: 4afa 093f 8cb4 0a3e 6024 323e 8778 fd3e
000002e0: 7736 173f c6b8 033d ec02 6a3e d6a3 a93e
000002f0: 4117 32bd 09f7 efbc 91ad 883e 9471 5d3e
00000300: 1b1b 753e c59c 01bd ef5f 8abc 192e 23bd
00000310: b6b6 8e3e 70bc 3b3e af94 bf3e 8fe8 163e
00000320: 7dd1 d23e 7d33 01bd 7dd3 533e 7e31 593e
00000330: 6918 03be 0866 bd3d 8ac5 c6bc 29e3 95be
00000340: 3984 f03e eb51 13bd 5474 a13e 8661 0a3c
00000350: 2f44 8cbe 8127 7abb 23c8 eabd 3e82 2d3d
00000360: be03 31bc f670 8e3e 3b51 afbc 14e5 383e
00000370: 0b5e 963d 7bce 973e c485 4b3e c8c9 a6bd
00000380: 7133 12be 94d5 283f 08cc 593d 4c26 313d
00000390: d36c a5bd c45a c43e 3b70 e03e 6e04 3f3e
000003a0: a726 c73d bb0c fd3d 3285 ff3e 467c 38be
000003b0: 1ade 983e 5b50 7dbe 6c57 9e3e 02e9 ba3e
000003c0: 3529 673f 8914 f03d e256 273f 5ad2 14bd
000003d0: 55bf 8fbd d2d8 62bd 789d 8b39 49fd 563e
000003e0: b6d2 133f 35b7 883e e6d6 e2be 07c6 b5bd
000003f0: b26f c7bd 9b63 363e aba7 033e 8a96 f83e

lstm.bias_hh_l1 f4 [512]
-0.20213975 -0.16146985 -0.5119123 -0.34626183 -0.08912081 -0.6742598 -0.42160827 -0.23610148
-0.106275104 -0.2606382 -0.0120835025 -0.41298884 -0.02747308 -0.23916267 0.14757098 -0.36468166
-0.53738534 -0.6702551 0.12030891 -0.46626487 -0.43056077 -0.39032432 -0.2712696 -0.4263256
0.12810142 -0.36173314 -0.38441268 -0.24518472 0.03718755 -0.50512576 0.08865808 0.25598013
-0.2804591 0.2803295 -0.028614858 -0.714137 -0.2750517 -0.46788287 0.05367858 -0.084463604
-0.24797073 0.006724345 -0.41415665 -0.5269866 0.14998268 -0.6612223 -0.28245634 -0.6634134
-0.5502515 -0.3677316 -0.07843406 -0.43249217 -0.51153266 -0.12006114 -0.27144146 0.31275728
0.02278922 -0.29572314 -0.061658494 -0.20526543 -0.64376104 -0.34401578 0.3042108 -0.05280548
-0.06244626 -0.61260545 0.2061171 -0.1917948 -0.0064784647 -0.1503671 -0.6239237 -0.07318018
-0.57486457 -0.13004443 -0.14735375 -0.55558395 -0.47911695 -0.061283004 -0.08119152 -0.26164344
-0.14703953 0.021086877 -0.048091613 -0.5817926 -0.4849446 -0.17360242 -0.21395567 -0.1422676
-0.021030921 -0.30458653 -0.33250472 -0.42060187 -0.18136713 0.10499525 0.23828621 -0.07514576
-0.3942764 -0.10400084 0.16977651 -0.07130193 -0.20603216 -0.7477223 -0.54366916 0.10996531
-0.22414763 -0.17831106 -0.23233773 -0.06839633 0.1423781 -0.34434772 0.029508207 0.17137797
0.33049238 -0.17291199 0.28719938 -0.45390242 -0.2579032 -0.46562958 -0.017831154 -0.4351478
0.10437108 -0.3523418 -0.3914756 -0.4731366 -0.28704888 -0.11358382 -0.19035597 -0.054155752
-0.016592294 0.35855225 -0.22768067 0.04908213 0.11648532 -0.20631534 0.053966083 0.12796198
0.1767528 -0.12957078 -0.038468566 0.040568016 0.21954915 0.71601474 0.22879307 -0.08318856
-0.083273984 0.23323318 0.019605028 -0.06679642 -0.03472064 0.06307166 -0.06699484 -0.12890199
0.35057732 0.20664029 -0.21730937 0.13126609 -0.022431504 -0.008886591 -0.068260856 0.08989812
0.22714868 0.017586995 0.30698562 -0.18127109 0.1214595 0.23179352 0.34914464 -0.037043173
-0.24475898 0.63412976 0.16562526 -0.085717484 0.40101695 -0.16678803 -0.006517982 -0.2109308
0.27351764 0.16116981 0.20237884 -0.07923402 0.5065376 0.022270558 0.31087306 0.37601402
0.6036538 0.006459054 0.39463064 0.3877132 -0.083838835 -0.044315644 0.16974424 0.23905611
0.298514 -0.06578297 0.016748253 -0.11193076 0.334542 0.19356757 0.4599185 0.093227856
0.47596908 0.0534339 0.25155813 0.26703662 -0.12479562 0.021449158 0.058712438 -0.1626353
0.45920813 0.025858276 0.23387647 -0.015700167 -0.29446235 0.14041355 -0.06713816 0.1244813
-0.04975116 0.2641658 -0.03547672 0.14908907 -0.007606646 0.13607343 0.2208838 -0.010367173
-0.11574563 0.6201812 0.15616037 0.064027935 0.04933967 0.45953265 0.42157236 0.079393096
0.070666336 0.16806288 0.4754763 -0.20141974 0.27964175 -0.23394795 0.2769198 0.35118577
1.0778491 -0.04020274 0.63779193 -0.14613555 -0.056879174 -0.06574166 -0.022282317 0.30084893
0.52099854 0.42207223 -0.4061931 -0.10661967 -0.017338589 0.15983431 0.03325891 0.5752459
00000000: b9fd 4ebe 5a58 25be af0c 03bf 3b49 b1be
00000010: f984 b6bd 4a9c 2cbf 0add d7be 96c4 71be
00000020: c3a6 d9bd 5f72 85be e2f9 45bc 4673 d3be
00000030: 3a0f e1bc 0fe7 74be d91c 173e 8eb7 babe
00000040: 1692 09bf d795 2bbf 8564 f63d 45ba eebe
00000050: 7672 dcbe 97d8 c7be d9e3 8abe 5947 dabe
00000060: 052d 033e 1635 b9be bdd1 c4be b411 7bbe
00000070: f951 183d ec4f 01bf 5e92 b53d d40f 833e
00000080: 5698 8fbe 5987 8f3e b569 eabc afd1 36bf
00000090: 94d3 8cbe 588e efbe 12de 5b3d 41fb acbd
000000a0: 0aec 7dbe e557 dc3b 570c d4be 98e8 06bf
000000b0: 0f95 193e dd45 29bf 1e9e 90be 76d5 29bf
000000c0: 48dd 0cbf 5147 bcbe 09a2 a0bd 9d6f ddbe
000000d0: cef3 02bf 9de2 f5bd 60fa 8abe b921 a03e
000000e0: 75b0 ba3c 0669 97be 9e8d 7cbd 1a31 52be
000000f0: 86cd 24bf d622 b0be 85c1 9b3e 8f4a 58bd
00000100: a6c7 7fbd b6d3 1cbf 5c10 533e db65 44be
00000110: 4d49 d4bb d5f9 19be 77b9 1fbf 7ddf 95bd
00000120: 532a 13bf 5e2a 05be e7e3 16be c03a 0ebf
00000130: d14e f5be e303 7bbd bd47 a6bd 21f6 85be
00000140: 8891 16be 63be ac3c b6fb 44bd 5cf0 14bf
00000150: a94a f8be d5c4 31be 3217 5bbe 99ae 11be
00000160: 0a49 acbc c4f2 9bbe 0f3e aabe 2159 d7be
00000170: 4eb8 39be c007 d73d 4d01 743e 05e6 99bd
00000180: 99de c9be 64fe d4bd e5d9 2d3e bf06 92bd
00000190: 18fa 52be bb6a 3fbf e72d 0bbf 7e35 e13d
000001a0: f586 65be 2d97 36be f1e9 6dbe 6013 8cbd
000001b0: 91cb 113e 584e b0be 32bb f13c b57d 2f3e
000001c0: 4c36 a93e d70f 31be cc0b 933e e665 e8be
000001d0: e30b 84be 0067 eebe a412 92bc b1cb debe
000001e0: 81c0 d53d 2566 b4be 7d6f c8be f63e f2be
000001f0: 12f8 92be a29e e8bd adec 42be 6cd2 5dbd
00000200: 90ec 87bc 2994 b73e 1f25 69be 580a 493d
00000210: db8f ee3d 5444 53be 8a0b 5d3d 7708 033e
00000220: b0fe 343e 34ae 04be 3791 1dbd a62a 263d
00000230: 7ed1 603e be4c 373f bb48 6a3e c45e aabd
00000240: 8d8b aabd aed4 6e3e b99a a03c 90cc 88bd
00000250: 3b37 0ebd b72b 813d 9734 89bd e2fe 03be
00000260: df7e b33e 8399 533e 5986 5ebe 9e6a 063e
00000270: 46c2 b7bc 1099 11bc 59cc 8bbd 811c b83d
00000280: aa99 683e 9a12 903c 382d 9d3e 219f 39be
00000290: c2bf f83d 485b 6d3e 16c3 b23e 95ba 17bd
000002a0: 19a2 7abe 5456 223f ab99 293e a68c afbd
000002b0: 1852 cd3e 7bca 2abe cc94 d5bb 3efe 57be
000002c0: 810a 8c3e b309 253e 663c 4f3e 7245 a2bd
000002d0: 73ac 013f bf70 b63c c12a 9f3e e984 c03e
000002e0: 0e89 1a3f 79a6 d33b 070d ca3e 5882 c63e
000002f0: b2b3 abbd 5284 35bd 6fd1 2d3e 20cb 743e
00000300: d4d6 983e 39b9 86bd a233 893c f43b e5bd
00000310: 1749 ab3e 9436 463e 707a eb3e 3fee be3d
00000320: 38b2 f33e 81dd 5a3d 3acc 803e 06b9 883e
00000330: d994 ffbd 25b6 af3c 747c 703d de89 26be
00000340: 541d eb3e bcd4 d33c 507d 6f3e a39d 80bc
00000350: c5c3 96be 92c8 0f3e bb7f 89bd 0df0 fe3d
00000360: dfc7 4bbd bd40 873e 0a50 11bd ceaa 183e
00000370: 2c41 f9bb d556 0b3e 5d2f 623e 13db 29bc
00000380: 0b0c edbd 32c4 1e3f 81e8 1f3e 1421 833d
00000390: 6518 4a3d dd47 eb3e 55d8 d73e d998 a23d
000003a0: 83b9 903d ad18 2c3e a171 f33e fa40 4ebe
000003b0: 342d 8f3e 0d90 6fbe 6fc8 8d3e 9fce b33e
000003c0: f6f6 893f a1ab 24bd 5546 233f 8fa4 15be
000003d0: 23fa 68bd 90a3 86bd 6889 b6bc df08 9a3e
000003e0: 2960 053f da19 d83e 8bf8 cfbe 6a5b dabd
000003f0: a809 8ebc 9bab 233e 7f3a 083d 5143 133f
