project/power/state_reasoning/model.ckpt (torch_old, 858516 bytes, 10 tensors)

lstm.weight_ih_l0 f4 [512, 28]
0.015611751 0.038062915 -0.016281884 0.36919257 0.1979846 0.1050845 0.13981292 0.33788595
0.47211584 0.44632086 0.45213252 0.43957117 0.14323828 0.18430074 0.03483378 -0.07422181
-0.14040902 -0.05366211 -0.08254853 -0.15896466 -0.24461576 -0.5448953 -0.4447405 -0.33835045
-0.50237656 -0.5875009 -0.1189101 -0.17203327 0.18769185 -0.20160054 -0.3680999 -0.37605298
-0.14145319 -0.30159616 -0.3143696 -0.40584627 -0.6980672 -1.1214645 -1.3040987 -1.4374864
-1.3504441 -0.5052759 0.09337398 0.10348276 0.1728075 0.25617477 -0.10017059 -0.09040846
0.086539686 -0.10833526 -0.3029397 -0.4951112 -0.37044758 -0.21345177 0.23903105 0.092096485
-0.07519349 0.0879235 -0.51760936 -0.6534149 -0.30240434 -0.46915576 -0.5944961 -0.3796035
-0.20578612 -0.15717788 -0.19463058 -0.13649343 -0.22332211 -0.36568454 -0.16247588 -0.04977033
-0.041866865 -0.10681038 -0.21389145 -0.28572178 -0.22226426 -0.17898512 -0.20810525 -0.5500248
-0.5536108 -0.49941623 0.19022578 -0.21729903 -0.181933 0.07983328 -0.16017236 0.028936213
-0.23508453 -0.3072057 -0.25051168 -0.35532394 -0.37143657 -0.1916341 0.02661163 -0.13443449
-0.18820295 -0.3452635 -0.18995923 -0.003207618 -0.2739187 -0.22873974 -0.21096888 -0.27136126
-0.24354658 -0.45784068 -0.2582369 -0.1964307 -0.12586537 -0.354146 -0.12564836 0.18933998
-0.17260659 0.15241583 -0.044875108 -0.06661665 0.007900783 -0.20948845 -0.042946797 0.10211129
-0.11668504 -0.106143564 -0.07126277 -0.13373119 -0.24250735 -0.20256698 -0.03944891 -0.12069153
-0.005448818 0.043777835 -0.07867746 -0.04440425 -0.09503874 0.1717258 0.42383447 0.593991
0.45073602 0.22242162 0.18989246 0.23130392 -0.081954144 -0.010118539 0.004081786 -0.6332776
-0.55099565 -0.6197916 -0.8341138 -0.922092 -0.70928353 -0.6307233 -0.31570336 0.24089131
0.47673258 0.35775733 -0.041215777 -0.30501986 -0.09650621 0.10735131 -0.0025663592 -0.10041617
-0.10452739 -0.22368506 -0.12891565 -0.27613166 -0.108562835 0.11801416 0.28299052 0.46938387
-0.17475826 -0.07824222 0.01165447 -0.124865085 -0.0035407487 -0.20664838 -0.27947512 -0.24878915
-0.35365906 -0.14137326 -0.13661401 -0.16898124 -0.20709898 -0.4460138 -0.37493715 -0.033512913
0.07525701 -0.08498329 -0.393519 -0.28633574 -0.33759013 -0.3794747 -0.38459277 -0.10540086
-0.12065624 -0.16831891 -0.25098982 -0.15528788 -0.0960834 0.10758593 0.11722728 0.390882
0.02097857 -0.3386728 0.13810375 -0.14356872 -0.11800219 -0.14297405 -0.19382545 -0.08287331
-0.11371351 -0.2882584 -0.15660146 0.31926057 0.2196176 0.14849117 0.0850856 0.33809203
0.29732105 0.2888182 0.4515653 0.37970927 0.3605442 0.14556232 0.22859694 0.160913
0.24766177 -0.016066259 -0.025901703 -0.64065266 -0.06425669 -0.22777353 -0.22699997 -0.27833956
-0.46401665 -0.23056446 -0.24645722 0.05430503 0.25276297 0.44751003 0.4745268 0.27141827
0.01894605 -0.1710445 0.09662755 0.14027251 0.09801856 0.3186922 0.29297277 0.050749388
-0.046515983 0.31535548 0.6287783 0.7270594 0.096822 0.101452924 0.5393562 0.22513394
00000000: 6ec8 7f3c dce7 1b3d 9661 85bc cf06 bd3e
00000010: 7abc 4a3e 8b36 d73d 1e2b 0f3e 63ff ac3e
00000020: 2bb9 f13e 2b84 e43e ea7d e73e 790f e13e
00000030: 0ead 123e 55b9 3c3e dead 0e3d 9b01 98bd
00000040: 62c7 0fbe cdcc 5bbd 340f a9bd a2c7 22be
00000050: 8e7c 7abe 427e 0bbf 07b5 e3be 453c adbe
00000060: c09b 00bf 7566 16bf 2387 f3bd 7d29 30be
00000070: 4b32 403e 5f70 4ebe 9777 bcbe 048a c0be
00000080: 1bd9 10be d06a 9abe 0df5 a0be 15cb cfbe
00000090: 88b4 32bf 268c 8fbf b5ec a6bf 8eff b7bf
000000a0: 5adb acbf c359 01bf db3a bf3d c5ee d33d
000000b0: 73f4 303e 5729 833e 3d26 cdbd 1228 b9bd
000000c0: b83b b13d e0de ddbd ea1a 9bbe 377f fdbe
000000d0: 4eab bdbe 1a93 5abe 8ec4 743e 159d bc3d
000000e0: 0bff 99bd 3c11 b43d 0c82 04bf 3346 27bf
000000f0: bed4 9abe 2f35 f0be e530 18bf 645b c2be
00000100: 99b9 52be 3df3 20be 3d4d 47be efc4 0bbe
00000110: 8dae 64be 013b bbbe 1460 26be f9db 4bbd
00000120: 977c 2bbd 67bf dabd 5c06 5bbe 204a 92be
00000130: 3e99 63be e047 37be 8b19 55be 6dce 0cbf
00000140: 70b9 0dbf 7cb3 ffbe 8cca 423e a383 5ebe
00000150: a54c 3abe a17f a33d 3904 24be a30b ed3c
00000160: 00ba 70be 114a 9dbe 1143 80be 05ed b5be
00000170: ef2c bebe bb3b 44be a200 da3c 32a9 09be
00000180: 46b8 40be 61c6 b0be ac84 42be e636 52bb
00000190: 123f 8cbe c03a 6abe 3a08 58be ddef 8abe
000001a0: 4664 79be 186a eabe a137 84be 2125 49be
000001b0: dae2 00be a052 b5be f7a9 00be 57e2 413e
000001c0: c8bf 30be e512 1c3e f6ce 37bd 4f6e 88bd
000001d0: 4972 013c 2484 56be fbe8 2fbd b91f d13d
000001e0: 91f8 eebd cc61 d9bd 37f2 91bd d4f0 08be
000001f0: d953 78be b86d 4fbe 2e95 21bd 1f2d f7bd
00000200: 008c b2bb 6350 333d a621 a1bd 3be1 35bd
00000210: aca3 c2bd e3d8 2f3e d500 d93e cb0f 183f
00000220: dfc6 e63e 7ec2 633e 2b73 423e efda 6c3e
00000230: 93d7 a7bd 3bc8 25bc 81c0 853b 7b1e 22bf
00000240: 0d0e 0dbf aaaa 1ebf 7b88 55bf 390e 6cbf
00000250: 9b93 35bf 1577 21bf dfa3 a1be 36ac 763e
00000260: 4b16 f43e f82b b73e e0d1 28bd 902b 9cbe
00000270: 0ca5 c5bd 01db db3d 5d30 28bb fea6 cdbd
00000280: 7512 d6bd b20d 65be 7702 04be 2161 8dbe
00000290: 3156 debd 68b1 f13d 22e4 903e 1553 f03e
000002a0: d4f3 32be 753d a0bd 64f2 3e3c 44b9 ffbd
000002b0: e80b 68bb a29b 53be 5d17 8fbe 95c2 7ebe
000002c0: cd12 b5be 27c4 10be 8be4 0bbe 6b09 2dbe
000002d0: c111 54be ec5b e4be c3f7 bfbe d644 09bd
000002e0: 5920 9a3d b80b aebd 537b c9be 999a 92be
000002f0: 9dd8 acbe 824a c2be 58e9 c4be 68dc d7bd
00000300: 9e1a f7bd cb5b 2cbe bd81 80be c903 1fbe
00000310: 60c7 c4bd 0356 dc3d db14 f03d af21 c83e
00000320: 40db ab3c 8566 adbe 126b 0d3e ae03 13be
00000330: 22ab f1bd ca67 12be 2e7a 46be 7bb9 a9bd
00000340: a1e2 e8bd 9b96 93be 225c 20be 1f76 a33e
00000350: 70e3 603e 120e 183e 5c41 ae3d 661a ad3e
00000360: 773a 983e fbdf 933e 9133 e73e 4169 c23e
00000370: 4099 b83e 4a0e 153e 5115 6a3e 61c6 243e
00000380: 0c9b 7d3e 639d 83bc cf2f d4bc d001 24bf
00000390: 0399 83bd 773d 69be ae72 68be 8682 8ebe
000003a0: 9793 edbe 1719 6cbe 485f 7cbe f36e 5e3d
000003b0: 266a 813e 0920 e53e 2df5 f23e 56f7 8a3e
000003c0: bf34 9b3c 4a26 2fbe aae4 c53d 99a3 0f3e
000003d0: f4bd c83d a02b a33e 8700 963e 97de 4f3d
000003e0: 8b87 3ebd 4676 a13e 9df7 203f 9120 3a3f
000003f0: 9d4a c63d 8dc6 cf3d 3f13 0a3f 8389 663e

lstm.weight_hh_l0 f4 [512, 128]
-0.14420597 -0.05438222 0.23371156 -0.10170071 0.23089194 -0.14672348 0.04840049 0.029984383
0.14286073 0.3900967 0.03130092 -0.36379266 -0.14212303 -0.1262725 -0.04215725 -0.17095752
-0.40171716 -0.27680224 -0.16485976 0.0816646 0.28067943 0.12701789 -0.029226555 -0.5031213
0.0533099 0.118193105 -0.54462636 -0.104791634 -0.121639065 0.3947209 0.04562046 -0.08751167
0.16547814 0.44253874 0.04095745 0.04468832 -0.3636452 0.0322256 0.046680506 -0.07101643
-0.16083735 -0.24565911 0.2799662 0.042639557 0.015978703 -0.07360426 0.14620873 0.20929314
-0.34833524 0.2977539 0.17077334 0.22134659 -0.020183044 -0.16946526 -0.35875505 -0.14509523
0.23425709 -0.25899526 0.12927814 0.25785983 -0.24054337 -0.13829488 0.093847245 0.06520756
-0.068639845 -0.34683555 0.1873751 -0.2276869 -0.16581103 0.20026651 0.22470339 -0.53432167
-0.22783238 0.01330579 0.04552949 0.36484435 0.21193646 0.07913937 0.03697661 -0.05613529
0.17557168 -0.10918897 -0.05366634 0.5624951 -0.12272153 0.059972968 0.079253286 -0.025497017
-0.17088242 -0.48710766 -0.68848246 0.029946407 0.09525512 0.06585809 0.07028889 -0.015701693
-0.20356904 0.41042584 0.23019992 -0.08508355 0.20375162 -0.24968043 -0.124815226 0.15313248
0.3199695 -0.12232296 0.050007287 -0.10031408 0.23729505 0.18800904 0.10349657 -0.283182
-0.33474246 0.0790668 0.11470788 0.3219528 0.2210026 0.12340413 -0.15567745 0.39173138
-0.08899976 0.15001541 0.4281263 0.2851092 0.0045116707 -0.06722067 -0.29410037 -0.07908421
-0.19517554 -0.031211922 -0.10298208 0.49641612 0.15792635 -0.23809706 -0.0073906 -0.62169456
0.015650472 -0.011957513 0.119591266 0.021250617 0.24075453 -0.04663394 0.16676576 0.0064498135
0.44042206 0.43898463 0.032465376 -0.0369285 0.18406221 -0.18561608 0.08630722 -0.11251671
0.13162361 0.5623775 -0.39653498 -0.09489051 0.10896864 0.07927519 -0.39509118 -0.36090422
0.0068251854 -0.40213546 -0.21677037 0.097183496 0.3508787 -0.15601465 0.40940952 -0.2561289
0.10368576 -0.19867973 -0.06272141 -0.34732127 -0.5174314 0.6114159 -0.013973066 0.16346352
-0.25833377 -0.11196015 0.2339622 0.01786502 0.21746144 0.14759412 -0.038399167 0.5160986
0.027522651 0.57384706 0.22843318 0.096424155 -0.057970505 0.20951682 0.29341877 -0.055949233
0.17463137 0.14865692 0.17090718 0.28173858 0.039088354 -0.40562862 0.27199847 0.08510432
-0.25540024 0.44014513 -0.5182936 -0.06276103 0.05745424 -0.12491666 0.15220714 -0.32483888
-0.07817013 -0.16778705 0.12040022 0.19974859 0.0478183 -0.027571797 -0.053961992 0.056413963
-0.34577462 0.7968786 0.5021058 0.0131510515 0.038951322 0.23405303 -0.29417744 0.2041014
-0.0003454178 0.41251564 0.14162345 -0.22071595 0.2612021 0.29233626 -0.4629752 0.15371941
-0.012035219 0.12904425 -0.23797445 0.09933049 0.24880256 -0.08876275 0.07045455 0.04534085
0.01598814 0.011921343 -0.34788677 0.08587534 -0.23212053 0.44637936 0.05304299 0.41804722
0.49849036 0.17496987 -0.2052899 -0.001074161 -0.86542237 0.21635304 -0.27834693 -0.2957979
00000000: bbaa 13be e4bf 5ebd 1552 6f3e 7648 d0bd
00000010: f06e 6c3e ae3e 16be 983f 463d cfa1 f53c
00000020: 154a 123e c1ba c73e 6535 003d 0843 babe
00000030: b388 11be 944d 01be 15ad 2cbd 7d0f 2fbe
00000040: dfad cdbe 06b9 8dbe ffd0 28be c53f a73d
00000050: 37b5 8f3e fa10 023e 876c efbc 8fcc 00bf
00000060: 7b5b 5a3d 3a0f f23d a26c 0bbf ff9c d6bd
00000070: e71d f9bd dc18 ca3e 85dc 3a3d 5239 b3bd
00000080: 1a73 293e 7094 e23e 00c3 273d 1a0b 373d
00000090: b42f babe fefe 033d 0f34 3f3d 1071 91bd
000000a0: 8cb2 24be 108e 7bbe bb57 8f3e d1a6 2e3d
000000b0: c5e5 823c d5bd 96bd beb7 153e f150 563e
000000c0: ff58 b2be 3373 983e 35df 2e3e aea8 623e
000000d0: e956 a5bc 4d88 2dbe beae b7be d893 14be
000000e0: 17e1 6f3e 079b 84be 7d61 043e 3406 843e
000000f0: 0051 76be 2c9d 0dbe fc32 c03d 8b8b 853d
00000100: 0c93 8cbd 6e94 b1be 42df 3f3e c126 69be
00000110: 5eca 29be aa12 4d3e a518 663e 4ec9 08bf
00000120: e44c 69be 8700 5a3c 217d 3a3d e1cc ba3e
00000130: df05 593e d213 a23d c974 173d 1eee 65bd
00000140: 10c9 333e 779e dfbd 3cd1 5bbd aeff 0f3f
00000150: 6d55 fbbd 37a6 753d 8c4f a23d 1fdf d0bc
00000160: cdfb 2ebe 2d66 f9be 6340 30bf 2b52 f53c
00000170: 1e15 c33d 9be0 863d 9ff3 8f3d d6a0 80bc
00000180: 6774 50be 5623 d23e 87b9 6b3e 4940 aebd
00000190: 44a4 503e 3aac 7fbe 209f ffbd c3ce 1c3e
000001a0: 0bd3 a33e 7684 fabd 71d4 4c3d 7871 cdbd
000001b0: 79fd 723e 7185 403e 02f6 d33d 3bfd 90be
000001c0: 5d63 abbe c6ed a13d f7eb ea3d ffd6 a43e
000001d0: 814e 623e 4ebb fc3d e969 1fbe 0491 c83e
000001e0: 8245 b6bd a49d 193e 5f33 db3e d5f9 913e
000001f0: a3d6 933b feaa 89bd 5394 96be e7f6 a1bd
00000200: 19dc 47be 25b0 ffbc 45e8 d2bd 412a fe3e
00000210: 72b7 213e b7cf 73be d92c f2bb 6027 1fbf
00000220: 6b35 803c 72e9 43bc 44ec f43d c615 ae3c
00000230: 5b88 763e 3b03 3fbd a5c4 2a3e f558 d33b
00000240: 007f e13e 98c2 e03e 6afa 043d 5742 17bd
00000250: ce7a 3c3e 2412 3ebe d7c1 b03d 296f e6bd
00000260: 57c8 063e f9f7 0f3f a206 cbbe f555 c2bd
00000270: f32a df3d 085b a23d 6449 cabe 70c8 b8be
00000280: cea5 df3b b3e4 cdbe 0df9 5dbe 2408 c73d
00000290: 5fa6 b33e 4ec2 1fbe 209e d13e 5423 83be
000002a0: 3359 d43d b372 4bbe 1574 80bd 18d4 b1be
000002b0: 6276 04bf c185 1c3f 49ef 64bc fb62 273e
000002c0: 5344 84be 5d4b e5bd c993 6f3e aa59 923c
000002d0: 36ae 5e3e ea22 173e 7248 1dbd 0a1f 043f
000002e0: 2f77 e13c a4e7 123f 63ea 693e 077a c53d
000002f0: 7b72 6dbd 948b 563e fc3a 963e 062b 65bd
00000300: 91d2 323e 8539 183e 4b02 2f3e 0a40 903e
00000310: 1c1b 203d 8eae cfbe 6243 8b3e 2c4b ae3d
00000320: d2c3 82be b45a e13e e4ae 04bf db88 80bd
00000330: 2355 6b3d 4ed4 ffbd 30dc 1b3e 4851 a6be
00000340: a917 a0bd 5ed0 2bbe 6494 f63d e58a 4c3e
00000350: 1fdd 433d 40de e1bc 4007 5dbd 5412 673d
00000360: 5f09 b1be 3c00 4c3f 018a 003f 8277 573c
00000370: 6c8b 1f3d 99ab 6f3e 6d9e 96be f5ff 503e
00000380: 3119 b5b9 4035 d33e bd05 113e 5d03 62be
00000390: 48bc 853e 19ad 953e 160b edbe 9f68 1d3e
000003a0: 5e2f 45bc 2d24 043e 93af 73be c96d cb3d
000003b0: 19c6 7e3e 3fc9 b5bd 7a4a 903d 54b7 393d
000003c0: 8ff9 823c bd51 433c 371e b2be 69df af3d
000003d0: 01b1 6dbe d68b e43e 9b43 593d 490a d63e
000003e0: 213a ff3e 4d2b 333e 8437 52be ddca 8cba
000003f0: 528c 5dbf a78b 5d3e 7d83 8ebe d372 97be

lstm.bias_ih_l0 f4 [512]
-0.19461046 -0.12072081 -0.054798037 -0.26187336 -0.29788977 0.026472682 0.0153296925 -0.38553634
-0.23502493 -0.4990826 -0.19288735 -0.3209678 -0.1237266 -0.28927398 -0.23161994 -0.18352331
-0.08018604 -0.31751946 -0.19475845 -0.30371934 -0.45045808 -0.16417566 -0.42726374 -0.28934425
-0.23362733 0.06590385 -0.38278165 -0.47420722 -0.21430002 -0.37089732 -0.101300724 0.04860425
-0.061639108 -0.3852909 -0.31767452 -0.110692054 0.14787327 -0.30584472 -0.08813425 -0.16627185
-0.5543284 0.045981057 -0.26586914 -0.15082993 -0.47177738 -0.072843775 -0.16064864 0.007672975
-0.3751711 -0.28291485 -0.25066692 -0.3069379 -0.10842673 -0.14563434 0.040456578 -0.060665026
-0.24791072 -0.40032429 -0.20366126 -0.11651207 -0.34539974 -0.2809663 -0.49491483 -0.32363114
-0.14732976 -0.2543085 -0.31931198 -0.11111329 -0.2422251 -0.26124468 -0.0728832 -0.28692895
-0.10925798 0.12984358 -0.37890854 -0.046164736 -0.075656265 -0.30128404 -0.4876177 0.046123505
-0.44615194 -0.14849669 -0.25256655 -0.04219388 -0.30375984 -0.107143685 -0.031214695 -0.29410118
-0.12270105 -0.015011469 -0.35604697 -0.08880204 -0.3396366 -0.1505635 -0.21179722 -0.16087689
-0.23639965 -0.16298735 -0.10163017 -0.113386065 -0.30117235 -0.29672977 -0.2886301 -0.27553543
-0.041708235 -0.2674186 -0.3109494 -0.1907319 -0.445715 -0.20530127 -0.28372425 -0.24186718
-0.35106707 -0.3254909 -0.023880571 -0.18494238 -0.15787376 -0.0026932412 -0.09063266 -0.35147613
-0.41870522 -0.59778905 -0.06781074 -0.23878686 -0.34198284 -0.3644955 -0.3915378 0.0013212895
-0.09425326 -0.11367107 0.013237947 -0.2349167 -0.033729814 0.0073109413 -0.06922376 -0.39039436
0.27761212 0.118000165 -0.05188373 -0.027218185 -0.1283455 0.17816718 -0.15903826 -0.096797906
-0.07969502 -0.034973845 -0.026432639 -0.0662814 0.24341191 -0.1357361 -0.42565283 0.13233882
-0.15144666 -0.09717244 0.13595551 -0.16427456 -0.139805 -0.19888608 -0.12499266 -0.30908486
0.008449545 -0.053537257 -0.049298063 -0.10536934 0.01601103 -0.26957253 -0.4077813 0.2007713
-0.009913327 0.23717287 0.2858719 -0.019127445 -0.19652861 -0.13907264 -0.036139574 -0.025223844
-0.14460997 0.023927858 -0.209262 -0.09034585 -0.10338786 -0.13312358 -0.15862419 0.01448877
-0.113329776 -0.054372452 0.026642792 0.073777854 -0.38358223 -0.3785227 -0.096014135 -0.008537093
-0.022251485 -0.51249844 -0.17089747 -0.5324347 -0.22737736 0.0039450214 -0.12348156 -0.03282861
-0.14103054 -0.086054765 -0.15049146 0.15557453 -0.1674207 0.07492396 -0.2433194 -0.10081018
0.32961795 -0.35933006 -0.18893196 -0.16956675 0.016794289 0.0050823945 0.04636539 -0.052350655
-0.12563871 -0.25434285 -0.25730473 -0.16358465 -0.05268059 -0.113174155 -0.10886776 0.09114524
-0.09911336 -0.036420945 -0.36346138 -0.09083191 0.0239394 -0.12217636 -0.15087318 0.025078101
-0.04209275 0.011895502 -0.45718452 -0.10499642 -0.15676515 -0.14374298 -0.10570531 -0.48547244
-0.15729637 0.11516924 -0.025732346 -0.011026038 -0.18985674 -0.15722372 -0.5566064 -0.3142382
-0.3116473 0.34028533 -0.23642388 -0.0063981107 -0.19833398 -0.36886945 0.031698715 -0.2615608
00000000: f747 47be 793c f7bd e873 60bd 4414 86be
00000010: 0285 98be 3ddd d83c 6429 7b3c 0565 c5be
00000020: 60aa 70be c187 ffbe 4384 45be e455 a4be
00000030: 5f64 fdbd b81b 94be c72d 6dbe 89ed 3bbe
00000040: 9438 a4bd e991 a2be c26e 47be 1a81 9bbe
00000050: 71a2 e6be aa1d 28be 50c2 dabe ee24 94be
00000060: 013c 6fbe 99f8 863d f5fb c3be 4acb f2be
00000070: 7771 5bbe 41e6 bdbe c176 cfbd 4015 473d
00000080: 4a79 7cbd d944 c5be 3ca6 a2be 84b2 e2bd
00000090: 176c 173e ae97 9cbe bb7f b4bd 2b43 2abe
000000a0: 77e8 0dbf a256 3c3d 0020 88be 2973 1abe
000000b0: ce8c f1be 1e2f 95bd 1481 24be 946d fb3b
000000c0: 6d16 c0be 37da 90be 6a57 80be f726 9dbe
000000d0: d50e debd 2b21 15be ccb5 253d e47b 78bd
000000e0: 4fdc 7dbe 4ef7 ccbe 948c 50be e19d eebd
000000f0: 3cd8 b0be d1da 8fbe 7a65 fdbe fbb2 a5be
00000100: 9ddd 16be b934 82be dc7c a3be 5d8f e3bd
00000110: db09 78be ddc1 85be ca43 95bd 5ae8 92be
00000120: a6c2 dfbd b7f5 043e 4d00 c2be 3c17 3dbd
00000130: acf1 9abd e741 9abe 07a9 f9be 00ec 3c3d
00000140: 076e e4be 840f 18be 6750 81be 7dd3 2cbd
00000150: 6986 9bbe 266e dbbd f6b5 ffbc 6e94 96be
00000160: b04a fbbd aaf2 75bc ca4b b6be d8dd b5bd
00000170: d9e4 adbe 512d 1abe 5fe1 58be e9bc 24be
00000180: c012 72be 28e6 26be 7b23 d0bd f436 e8bd
00000190: 4333 9abe f7ec 97be 53c7 93be fb12 8dbe
000001a0: 41d6 2abd 17eb 88be c234 9fbe 394f 43be
000001b0: c234 e4be 7f3a 52be 4e44 91be 08ac 77be
000001c0: 10bf b3be bea6 a6be 30a1 c3bc 8961 3dbe
000001d0: a9a9 21be 1781 30bb 9e9d b9bd aef4 b3be
000001e0: 8860 d6be b408 19bf 5be0 8abd 8b84 74be
000001f0: 6018 afbe 279f babe a477 c8be 1e2f ad3a
00000200: da07 c1bd 61cc e8bd f9e3 583c 018e 70be
00000210: 4628 0abd 9f90 ef3b 30c5 8dbd c5e1 c7be
00000220: 2d23 8e3e 12aa f13d 0984 54bd acf8 debc
00000230: 016d 03be 7571 363e edda 22be fb3d c6bd
00000240: 2537 a3bd bc40 0fbd 4389 d8bc 8bbe 87bd
00000250: f940 793e 67fe 0abe 2bef d9be d483 073e
00000260: d514 1bbe 5802 c7bd ec37 0b3e 9737 28be
00000270: 0b29 0fbe cba8 4bbe 27fc ffbd 5f40 9ebe
00000280: f66f 0a3c e249 5bbd c4ec 49bd e1cb d7bd
00000290: 9029 833c 6905 8abe b6c8 d0be fe96 4d3e
000002a0: 826b 22bc 72dd 723e cd5d 923e 29b1 9cbc
000002b0: cc3e 49be 0f69 0ebe 1707 14bd 3ca2 cebc
000002c0: a314 14be 5b04 c43c c748 56be 3f07 b9bd
000002d0: 04bd d3bd 8c51 08be 616e 22be 4e62 6d3c
000002e0: 7119 e8bd a6b5 5ebd fc41 da3c d818 973d
000002f0: e464 c4be bacd c1be 0fa3 c4bd 2adf 0bbc
00000300: bf48 b6bc 1933 03bf bfff 2ebe a44d 08bf
00000310: 9cd5 68be 3d45 813b e6e3 fcbd 4b77 06bd
00000320: 4f6a 10be 7b3d b0bd 6f1a 1abe ee4e 1f3e
00000330: 5570 2bbe bc71 993d b928 79be 9175 cebd
00000340: afc3 a83e 1cfa b7be 6177 41be e8a2 2dbe
00000350: 2d94 893c 378a a63b a3e9 3d3d a46d 56bd
00000360: 6fa7 00be 3a39 82be 72bd 83be bc82 27be
00000370: 9ac7 57bd dac7 e7bd 0ff6 debd 5baa ba3d
00000380: f2fb cabd 212e 15bd 9c17 babe 1506 babd
00000390: 901c c43c 9937 fabd 807e 1abe 9770 cd3c
000003a0: 7369 2cbd 5ae5 423c 1714 eabe 5d08 d7bd
000003b0: 0b87 20be 5c31 13be 077c d8bd d88f f8be
000003c0: 4d12 21be dadd eb3d a4cc d2bc 8ea6 34bc
000003d0: ce69 42be 41ff 20be c27d 0ebf d4e3 a0be
000003e0: 3c90 9fbe e139 ae3e 1a19 72be 3ea7 d1bb
000003f0: 1018 4bbe 75dc bcbe 83d6 013d 4ceb 85be

lstm.bias_hh_l0 f4 [512]
-0.15670617 -0.06799639 -0.054572083 -0.24762328 -0.3854466 0.018410692 0.06580263 -0.39342448
-0.35250276 -0.39548635 -0.11270852 -0.20442015 -0.19062054 -0.23956537 -0.19732097 -0.34803233
0.052292965 -0.41007563 -0.19634177 -0.27495986 -0.44301295 -0.2073226 -0.25722536 -0.4522909
-0.16530755 -0.0077998885 -0.3282644 -0.43925926 -0.24311109 -0.37212083 -0.14147569 0.0059845927
-0.13577706 -0.32480514 -0.31875244 -0.18082309 0.13486125 -0.33657977 -0.12349288 -0.17115141
-0.55499274 -0.0014339377 -0.34093013 -0.19624625 -0.38465798 -0.00064241095 -0.28864247 0.040416088
-0.39435366 -0.16955274 -0.19718261 -0.25487182 -0.1263559 -0.2700785 -0.029897429 0.0025970933
-0.24095441 -0.43689469 -0.11338655 -0.1003536 -0.29079136 -0.3032601 -0.4450731 -0.23959523
-0.043408282 -0.2289007 -0.3010132 -0.07266229 -0.29653147 -0.24736166 -0.16176134 -0.37615648
-0.18396816 0.18681586 -0.4312306 -0.069722615 -0.050824985 -0.28708473 -0.41724062 0.11517971
-0.42494676 -0.22452597 -0.21496806 -0.16007826 -0.21770997 -0.16257799 -0.16306211 -0.29495457
-0.18689185 -0.12710041 -0.38689455 -0.101838134 -0.31704396 -0.13663228 -0.27638403 -0.13225442
-0.23869345 -0.17966327 -0.14810021 -0.127034 -0.24272941 -0.27397424 -0.30132088 -0.12196705
0.007379046 -0.2711256 -0.2847244 -0.23467374 -0.4450913 -0.19266753 -0.1990944 -0.21108505
-0.3343393 -0.2555017 -0.18160613 -0.20261289 -0.090801924 -0.014657203 -0.20144445 -0.40127677
-0.5075152 -0.6384123 -0.10761459 -0.17234574 -0.2990712 -0.3995506 -0.42832708 -0.018433524
-0.14559156 0.0014847263 0.0943393 -0.18006192 -0.19993143 -0.08219499 -0.08772687 -0.38937575
0.3026278 0.15968339 -0.1480653 -0.09703994 -0.06493491 0.20833227 -0.15821494 0.017365409
-0.08878329 -0.03972199 0.016373847 -0.1223954 0.3052066 -0.18752187 -0.3659309 0.14849983
-0.051831625 -0.17844243 0.1414031 -0.31736496 -0.057059746 -0.16867836 -0.19591704 -0.25056213
-0.022441246 -0.16431418 -0.045778707 -0.115810275 0.08978446 -0.31132028 -0.39942896 0.2422687
-0.022059124 0.11454016 0.29367712 -0.098518975 -0.17718272 -0.21813436 -0.1740814 -0.05397899
-0.07846304 0.0006801535 -0.24037887 -0.005684446 -0.15298925 -0.16854176 -0.15180483 0.050457817
-0.21554388 -0.07905746 0.08771201 0.17809841 -0.52639073 -0.36974403 -0.135472 -0.007846189
-0.047982596 -0.5728569 -0.15879586 -0.42564768 -0.31128696 -0.036683887 -0.16967839 -0.062418383
-0.14557953 -0.18435572 -0.19039097 0.03415762 -0.1617397 0.1870807 -0.14561518 -0.18480884
0.3862174 -0.32163364 -0.16042386 -0.11544818 -0.10457921 0.010912491 -0.04883755 -0.0935777
-0.21439861 -0.32941535 -0.18552342 -0.11893745 -0.13282572 -0.11502877 -0.14209159 -0.025745297
-0.24158725 -0.10193692 -0.30958703 -0.13730755 -0.047168702 -0.16203608 -0.1396621 -0.03154733
0.08285562 0.01574998 -0.49065277 -0.07640222 -0.17203286 -0.11324022 -0.18402459 -0.6164689
-0.30822173 0.03814526 -0.13904874 0.067810446 -0.35040948 -0.17832933 -0.58732677 -0.25116864
-0.38098103 0.30568257 -0.20066354 0.08421012 -0.27255014 -0.34146842 0.060189303 -0.293509
00000000: 9577 20be b141 8bbd fa86 5fbd f590 7dbe
00000010: 4259 c5be 05d2 963c 87c3 863d ef6e c9be
00000020: 3e7b b4be 307d cabe b9d3 e6bd 8453 51be
00000030: 0832 43be a050 75be 820e 4abe 4b31 b2be
00000040: 2631 563d 6ff5 d1be d10d 49be 8ac7 8cbe
00000050: 98d2 e2be 604c 54be 0bb3 83be ac92 e7be
00000060: 6246 29be 3596 ffbb 4512 a8be 97e6 e0be
00000070: 1df2 78be 9f86 bebe 01df 10be 671a c43b
00000080: 2409 0bbe dc4c a6be 8533 a3be b029 39be
00000090: 1119 0a3e 2f54 acbe d6e9 fcbd 5142 2fbe
000000a0: 0114 0ebf f7f2 bbba 658e aebe c7f4 48be
000000b0: e4f1 c4be 7867 28ba f2c8 93be 578b 253d
000000c0: b9e8 c9be 3c9f 2dbe 3dea 49be 8f7e 82be
000000d0: 7163 01be bb47 8abe 74eb f4bc ff33 2a3b
000000e0: c1bc 76be a9b0 dfbe 3537 e8bd 3086 cdbd
000000f0: 9be2 94be e844 9bbe 9fe0 e3be 7458 75be
00000100: e2cc 31bd f264 6abe 671e 9abe f7cf 94bd
00000110: f9d2 97be 604c 7dbe c4a4 25be 9597 c0be
00000120: 2662 3cbe a84c 3f3e 42ca dcbe bbca 8ebd
00000130: dc2d 50bd c5fc 92be 90a0 d5be 57e3 eb3d
00000140: 9f92 d9be 23ea 65be 9620 5cbe 8eeb 23be
00000150: 5def 5ebe d87a 26be c1f9 26be 4904 97be
00000160: 9460 3fbe 9c26 02be 0b17 c6be 8390 d0bd
00000170: 9653 a2be 55e9 0bbe 3582 8dbe b46d 07be
00000180: 0e6c 74be a6f9 37be 95a7 17be 3315 02be
00000190: 0f8e 78be 5a46 8cbe bb46 9abe dcc9 f9bd
000001a0: edcb f13b fad0 8abe 66c7 91be 504e 70be
000001b0: 02e3 e3be a34a 45be 67df 4bbe ae26 58be
000001c0: 852e abbe 1ed1 82be f5f6 39be c179 4fbe
000001d0: 5cf6 b9bd c424 70bc 7447 4ebe 2674 cdbe
000001e0: 84ec 01bf fd6e 23bf 0a65 dcbd 677b 30be
000001f0: dc1f 99be e591 ccbe b04d dbbe e701 97bc
00000200: f415 15be 269b c23a f734 c13d 2762 38be
00000210: d3ba 4cbe d955 a8bd 25aa b3bd 425c c7be
00000220: 08f2 9a3e 0b84 233e 6e9e 17be e0bc c6bd
00000230: 98fc 84bd 0e55 553e 1903 22be e741 8e3c
00000240: 03d4 b5bd 86b3 22bd 7222 863c 71aa fabd
00000250: 0a44 9c3e bc05 40be 4c5b bbbe 5710 183e
00000260: 664d 54bd 9db9 36be f9cb 103e a97d a2be
00000270: 7bb7 69bd 05ba 2cbe 7a9e 48be ae49 80be
00000280: b4d6 b7bc fa41 28be 7482 3bbd f02d edbd
00000290: eae0 b73d 5f65 9fbe f481 ccbe 4915 783e
000002a0: 56b5 b4bc 0894 ea3d d95c 963e 51c4 c9bd
000002b0: 636f 35be 9d5e 5fbe 6542 32be 1319 5dbd
000002c0: 3bb1 a0bd 544c 323a e125 76be 9744 babb
000002d0: 37a9 1cbe 3696 2cbe ba72 1bbe dbac 4e3d
000002e0: 89b7 5cbe e1e8 a1bd 5ba2 b33d 6e5f 363e
000002f0: 8bc1 06bf 174f bdbe 2cb9 0abe 4d8d 00bc
00000300: 6689 44bd c0a6 12bf 629b 22be 7eee d9be
00000310: 0161 9fbe d841 16bd 2cc0 2dbe 6baa 7fbd
00000320: cd12 15be bfc7 3cbe daf5 42be dce8 0b3d
00000330: 189f 25be 1592 3f3e 251c 15be 873e 3dbe
00000340: 49be c53e 2aad a4be 2746 24be 1870 ecbd
00000350: a02d d6bd 4eca 323c e209 48bd aaa5 bfbd
00000360: 4f8b 5bbe 21a9 a8be daf9 3dbe 7a95 f3bd
00000370: 7703 08be 3494 ebbd 7580 11be cde7 d2bc
00000380: a662 77be 4ec4 d0bd 3182 9ebe 5a9a 0cbe
00000390: f833 41bd c9ec 25be 9503 0fbe c637 01bd
000003a0: 35b0 a93d 1a06 813c d736 fbbe c478 9cbd
000003b0: 6229 30be 7dea e7bd f170 3cbe e8d0 1dbf
000003c0: 3dcf 9dbe 343e 1c3d cb62 0ebe 34e0 8a3d
000003d0: df68 b3be f79b 36be 0c5b 16bf 2d99 80be
000003e0: f20f c3be 6d82 9c3e be7a 4dbe 5b76 ac3d
000003f0: b18b 8bbe f3d4 aebe 0f89 763d d046 96be

lstm.weight_ih_l1 f4 [512, 128]
0.058617357 -0.07504068 0.01986693 0.0010620937 0.050539434 0.14904274 0.43841997 0.0058974572
0.05373497 -0.14498214 -0.78473777 0.18773909 -0.002047231 0.009970937 0.055256195 0.00092745846
0.076644816 -0.24554862 -0.09660135 -0.25323957 -0.1253988 0.22889917 -0.05011313 -0.07175747
0.050070673 0.1020031 0.10754879 -0.043124985 0.117727816 -0.28616637 0.10151201 0.12191609
0.09686776 -0.3612011 0.02520155 -0.107547395 -0.033031125 0.1114935 0.3114631 -0.044901192
0.09477177 0.2195557 -0.23716426 -0.25845182 -0.09348519 0.04254693 -0.027149357 -0.09085773
0.12623373 -0.2860073 0.24568662 -0.15478571 -0.00015168231 0.13145414 0.15604503 -0.051580977
-0.015595575 -0.37534773 0.0052977437 -0.31688812 -0.045495167 -0.020439278 0.075294204 -0.17033282
0.10710992 0.19099018 -0.033631846 0.13919874 -0.012297521 -0.22555433 0.051053368 -0.12996003
0.2259053 0.09123932 0.0760076 0.030896574 0.061637912 -0.10214105 -0.13582924 0.24098824
0.09253444 -0.06330014 -0.1710973 -0.006521284 0.107782125 0.033827435 -0.067979366 -0.0045602233
0.01333532 -0.2250364 0.40630847 -0.09141315 -0.059104536 0.0038486272 0.06790544 0.12362726
-0.042024937 0.13748503 0.22715595 0.090038195 -0.2889447 0.046430513 -0.43864983 -0.16508368
-0.16107272 -0.08396761 0.067997225 -0.16446517 -0.02640917 0.078107744 0.0017684251 0.03315631
0.15927531 -0.11305112 -0.15615064 -0.12532523 0.138812 0.17802392 0.24421616 -0.046797093
0.065372765 -0.14828873 0.1902719 -0.1809525 -0.19604371 0.025581708 0.09523701 -0.02267527
0.2732036 -0.33594823 -0.10221583 -0.3696169 0.20396386 0.2020225 0.38002017 0.3233728
0.17559998 -0.18949874 -0.17581458 -0.11082929 0.45540243 -0.10406276 -0.28261372 -0.36340466
0.19420683 -0.38404047 0.20203969 -0.075087294 0.24833323 0.43046904 0.08148239 0.25215054
0.3541895 0.39709824 0.3755743 0.12069589 -0.13407111 -0.34953326 0.30477175 -0.05638779
0.14410987 -0.3784086 0.54720634 0.013911981 -0.102747485 -0.018887475 0.19412889 -0.40983006
0.24501768 0.02048269 -0.42113447 0.0056268945 0.29721993 -0.08322241 -0.12634489 -0.041475143
-0.7446078 -0.3080113 0.116394214 -0.38869476 0.046218872 0.5552265 -0.38225043 -0.15142964
0.1652567 -0.06491014 0.061321117 -0.30577615 -0.114855506 0.22647437 -0.07850395 -0.42322317
0.14014024 1.224045 -0.120480955 0.14667058 -0.05365508 0.14982902 0.12962432 0.8997851
-0.2958197 -0.32661474 0.08188131 0.10341893 0.47181448 0.18173258 0.1048554 0.65531474
-0.39314467 -0.1709998 -0.7076491 0.25821385 0.12681644 -0.3088684 -0.35996076 -0.193825
0.40483746 -0.44338256 0.26437068 -0.26601458 0.083605036 -0.2510789 0.5559027 0.10967869
-0.30208102 0.022830036 0.3352179 -0.11162512 -0.29591814 0.20745933 0.049994875 -0.19325422
-0.34628516 0.060418565 0.7799398 0.059607696 -0.1979148 0.07507343 -0.4705748 -0.76220447
0.10771976 -0.40001777 -0.34323874 -0.015469201 -0.077292174 0.43280607 -0.1828738 0.049321532
0.0045031463 0.49452126 -0.092056684 -0.5396176 0.046661194 -0.11198625 0.065206505 0.42360637
00000000: c118 703d eeae 99bd f9bf a23c f335 8b3a
00000010: 7002 4f3d a99e 183e 9578 e03e 753f c13b
00000020: 3319 5c3d 3376 14be 93e4 48bf ad3e 403e
00000030: d62a 06bb 245d 233c 5254 623d af20 733a
00000040: f5f7 9c3d 1971 7bbe eed6 c5bd 9ea8 81be
00000050: 8b68 00be 8b64 6a3e 6d43 4dbd 95f5 92bd
00000060: e816 4d3d 00e7 d03d 8a42 dc3d d3a3 30bd
00000070: 481b f13d 6684 92be 87e5 cf3d 25af f93d
00000080: 9b62 c63d 5aef b8be 7b73 ce3c cf41 dcbd
00000090: a54b 07bd b456 e43d 1778 9f3e 50ea 37bd
000000a0: b417 c23d 36d3 603e 30db 72be cc53 84be
000000b0: 2a75 bfbd b145 2e3d 5468 debc 9e13 babd
000000c0: 6a43 013e 8c6f 92be 4695 7b3e 2580 1ebe
000000d0: e90c 1fb9 ea9b 063e 45ca 1f3e 9346 53bd
000000e0: 9584 7fbc 942d c0be b298 ad3b 293f a2be
000000f0: 2459 3abd 4670 a7bc d933 9a3d ba6b 2ebe
00000100: 725c db3d ee92 433e 8cc1 09bd 1d8a 0e3e
00000110: 8b7b 49bc b7f7 66be 561d 513d 3e14 05be
00000120: b853 673e aedb ba3d dfa9 9b3d d01a fd3c
00000130: 0978 7c3d 542f d1bd d216 0bbe 9fc5 763e
00000140: b282 bd3d 81a3 81bd 2134 2fbe 7fb0 d5bb
00000150: e0bc dc3d a38e 0a3d c438 8bbd ed6d 95bb
00000160: 637c 5a3c f16f 66be aa07 d03e d136 bbbd
00000170: 9917 72bd 4039 7c3b 0212 8b3d 4a30 fd3d
00000180: 5722 2cbd e0c8 0c3e 929b 683e f265 b83d
00000190: 8ff0 93be ec2d 3e3d b696 e0be b20b 29be
000001a0: 3ff0 24be 36f7 abbd 2142 8b3d 8f69 28be
000001b0: 0b58 d8bc f4f6 9f3d 80ca e73a e9ce 073d
000001c0: 1119 233e 5887 e7bd f4e5 1fbe 4255 00be
000001d0: bc24 0e3e e74b 363e cd13 7a3e 4fae 3fbd
000001e0: 28e2 853d 00d9 17be a3d6 423e 9d4b 39be
000001f0: afbf 48be bb90 d13c 9f0b c33d 7dc1 b9bc
00000200: 58e1 8b3e 6801 acbe 8856 d1bd 6d3e bdbe
00000210: e7db 503e fcde 4e3e 0192 c23e 1f91 a53e
00000220: 7bd0 333e f50b 42be bd08 34be 77fa e2bd
00000230: 822a e93e db1e d5bd bfb2 90be 2d10 babe
00000240: 28de 463e f4a0 c4be 7ee3 4e3e 5ec7 99bd
00000250: 114b 7e3e 7066 dc3e 3de0 a63d e019 813e
00000260: 5358 b53e 7650 cb3e 464b c03e 682f f73d
00000270: f049 09be 06f6 b2be 0b0b 9c3e e2f6 66bd
00000280: 8a91 133e c6be c1be b715 0c3f 14ef 633c
00000290: 466d d2bd e8b9 9abc b9c9 463e 3fd5 d1be
000002a0: eae5 7a3e 50cb a73c f09e d7be d061 b83b
000002b0: 362d 983e 8370 aabd 8e60 01be d7e1 29bd
000002c0: 9e9e 3ebf a8b3 9dbe 1760 ee3d 0003 c7be
000002d0: 0050 3d3d 5323 0e3f 54b6 c3be 5f10 1bbe
000002e0: 0d39 293e 9cef 84bd da2b 7b3d b18e 9cbe
000002f0: 5d39 ebbd e6e8 673e aec6 a0bd b5b0 d8be
00000300: ec80 0f3e 82ad 9c3f b8be f6bd d030 163e
00000310: 6ec5 5bbd c76c 193e 3dbc 043e 5158 663f
00000320: ae75 97be 0c3a a7be 63b1 a73d 4ecd d33d
00000330: ab91 f13e 1b18 3a3e 6ebe d63d b5c2 273f
00000340: 424a c9be 921a 2fbe 7e28 35bf 9b34 843e
00000350: 2bdc 013e 0024 9ebe c74c b8be 107a 46be
00000360: db46 cf3e 0a03 e3be 985b 873e 1033 88be
00000370: 1e39 ab3d 6a8d 80be a44f 0e3f 399f e03d
00000380: 5daa 9abe 0e06 bb3c aea1 ab3e b69b e4bd
00000390: 9582 97be 3870 543e 6dc7 4c3d 6fe4 45be
000003a0: 4a4c b1be 7579 773d 22aa 473f 3327 743d
000003b0: 2daa 4abe 19c0 993d 2eef f0be d51f 43bf
000003c0: 2d9c dc3d 21cf ccbe fdbc afbe 8872 7dbc
000003d0: 5c4b 9ebd c298 dd3e 4543 3bbe 6005 4a3d
000003e0: 218f 933b e431 fd3e 3788 bcbd 6124 0abf
000003f0: cf1f 3f3d 0c59 e5bd fd8a 853d efe2 d83e

lstm.weight_hh_l1 f4 [512, 128]
-0.001629909 0.2711016 -0.06550869 0.010375139 -0.14001538 0.06568416 -0.06802441 -0.08008663
0.34503043 0.060988437 0.06966974 -0.032900166 -0.06516907 -0.019386167 -0.26803198 0.16972391
-0.17038691 0.068129174 -0.09661845 0.014079798 0.043312646 0.14477374 0.06496899 -0.2349551
0.07680834 0.006453833 0.03365462 -0.20929503 0.13925365 0.025915293 -0.18723656 -0.133071
-0.20237367 -0.28506094 0.045442615 0.078696355 -0.17590828 0.1259214 -0.006420147 -0.09502071
-0.15373202 0.16697645 0.12085082 0.07396148 -0.005915635 -0.032694835 -0.07411614 -0.35311645
0.04664782 0.2544536 -0.099320896 -0.105104044 0.01447688 -0.069558926 0.15495239 0.021364506
0.1206445 -0.17505732 0.08825493 0.13985914 0.13166386 -0.114565775 -0.1947068 0.18375276
-0.15538952 -0.03211132 0.08572828 0.15658721 0.06255191 -0.14486699 0.09623128 -0.03515431
0.014376224 0.021996764 0.077393964 -0.28226048 0.0037462495 -0.084777996 0.2535023 -0.111496516
0.1889665 -0.10200605 -0.17224745 -0.1171884 0.15244193 -0.22555025 0.06486224 -0.3532681
-0.039844647 -0.13423575 -0.089551285 -0.1380335 0.07889109 0.14351775 -0.106545344 0.08320019
-0.0017781126 0.063303865 0.105732135 -0.11017603 -0.07806945 -0.06226605 0.039390627 0.20704913
0.066189766 0.02704856 -0.1218787 -0.030405648 0.016910456 -0.07168722 0.060581625 -0.038793784
0.06400171 -0.3043003 0.07893154 -0.014241664 -0.1616218 0.13092057 -0.0011149097 -0.332526
-0.0331737 -0.10688671 -0.17942868 -0.0598114 -0.004356984 -0.24345013 0.10388821 0.0836354
-0.027525714 0.005332654 -0.15728405 -0.040788237 -0.29543343 -0.21695246 0.11628852 0.124869965
0.11400759 0.2680588 0.21966128 0.2136239 -0.075336 0.1602855 -0.024221536 -0.077651806
0.063408 0.068172425 0.4362976 0.03193532 0.26580736 -0.06897556 -0.11565468 0.053676143
-0.12387875 -0.30956393 -0.103342906 0.081224695 0.020401042 -0.013263533 -0.029032605 -0.4140591
0.16816214 0.21720351 0.056801774 0.15839466 0.16896187 0.024616184 0.32634163 0.20546024
0.24443123 0.20594284 -0.017623557 0.07597201 -0.33229357 -0.123574585 0.0976647 -0.05694312
-0.34271154 -0.13448599 0.1364523 0.1923953 0.25418174 -0.043973427 0.07727835 0.12650125
0.44538707 -0.1217608 -0.0375159 -0.020413056 -0.02205047 -0.041526187 -0.021655608 -0.33350477
-0.064421564 0.07677774 -0.49216527 -0.070599705 -0.15463483 -0.031669587 -0.053306047 -0.23490976
0.06516855 0.21778177 -0.30460978 -0.009862882 0.12899053 0.2523704 -0.016255615 -0.38659763
0.2881839 -0.24559483 -0.1310471 0.15602417 0.4283132 0.028427243 -0.31119287 0.14939506
0.15347679 0.2042068 -0.094955556 -0.10800165 -0.15567207 0.13556752 -0.07520833 -0.2945836
-0.09079807 -0.024970785 0.031047484 0.15801553 0.33092466 -0.045169696 -0.03540985 0.07634723
-0.44480982 0.1631183 -0.24257712 0.005849564 0.09415785 0.25296006 0.072320595 -0.119504474
0.22861463 -0.0006842208 -0.012788754 0.0062094517 -0.090385035 0.12503909 0.21364191 -0.35058329
-0.016396193 0.14366916 0.4496417 -0.24702004 -0.24933167 -0.03976583 0.017245611 -0.124984235
00000000: aca2 d5ba d4cd 8a3e 6c29 86bd 7dfc 293c
00000010: 3160 0fbe 6b85 863d 6250 8bbd 7604 a4bd
00000020: d4a7 b03e 03cf 793d 02af 8e3d 53c2 06bd
00000030: 5d77 85bd bdcf 9ebc 7d3b 89be 1bcc 2d3e
00000040: e879 2ebe 4f87 8b3d e5df c5bd f4ae 663c
00000050: 9a68 313d 913f 143e 760e 853d 1298 70be
00000060: b14d 9d3d ad7a d33b 6dd9 093d 7051 56be
00000070: 8298 0e3e 4f4c d43c f1ba 3fbe c443 08be
00000080: 0b3b 4fbe 82f3 91be 0922 3a3d 8e2b a13d
00000090: 4d21 34be 8af1 003e 1960 d2bb 389a c2bd
000000a0: ed6b 1dbe e0fb 2a3e a280 f73d 1e79 973d
000000b0: f1d7 c1bb 05eb 05bd 34ca 97bd aecb b4be
000000c0: c911 3f3d be47 823e c168 cbbd ca40 d7bd
000000d0: 7030 6d3c e974 8ebd d7ab 1e3e 9e04 af3c
000000e0: 7714 f73d 3a42 33be 00bf b43d 3c37 0f3e
000000f0: e4d2 063e 76a1 eabd 3861 47be af29 3c3e
00000100: 6e1e 1fbe 2987 03bd 4f92 af3d 6658 203e
00000110: 371b 803d 0358 14be e814 c53d f7fd 0fbd
00000120: 418a 6b3c 8f32 b43c ba80 9e3d 7284 90be
00000130: a383 753b 16a0 adbd 0ecb 813e 4958 e4bd
00000140: 6f80 413e 8ce8 d0bd a361 30be 7900 f0bd
00000150: bd19 1c3e a5f6 66be 7ed6 843d 8edf b4be
00000160: 2434 23bd 1975 09be aa66 b7bd a758 0dbe
00000170: a791 a13d 51f6 123e 7234 dabd dc64 aa3d
00000180: 8f0f e9ba 75a5 813d 178a d83d f8a3 e1bd
00000190: e0e2 9fbd b00a 7fbd 1158 213d b004 543e
000001a0: 808e 873d f194 dd3c 8a9b f9bd 4415 f9bc
000001b0: cc87 8a3c c0d0 92bd 7024 783d 3be6 1ebd
000001c0: 5413 833d 40cd 9bbe dca6 a13d de55 69bc
000001d0: 2f80 25be 0b10 063e 2922 92ba d940 aabe
000001e0: 25e1 07bd 6be7 dabd 27bc 37be ccfc 74bd
000001f0: 08c5 8ebb fe4a 79be 58c3 d43d 0949 ab3d
00000200: 9b7d e1bc 8bbd ae3b 120f 21be 9111 27bd
00000210: 0d43 97be c928 5ebe ad28 ee3d d3bb ff3d
00000220: d07c e93d 013f 893e e3ee 603e 39c0 5a3e
00000230: c349 9abd e221 243e 3e6c c6bc e907 9fbd
00000240: 0edc 813d fc9d 8b3d 6662 df3e 9cce 023d
00000250: e717 883e 0f43 8dbd 5cdc ecbd 84db 5b3d
00000260: 24b4 fdbd 2a7f 9ebe 72a5 d3bd 2259 a63d
00000270: 1620 a73c 4a4f 59bc c9d5 edbc 8eff d3be
00000280: b232 2c3e 996a 5e3e faa8 683d 3632 223e
00000290: 5704 2d3e e1a7 c93c 4016 a73e 2b64 523e
000002a0: 2e4c 7a3e aee2 523e 475f 90bc 3797 9b3d
000002b0: 6222 aabe ac14 fdbd 6e04 c83d 303d 69bd
000002c0: e377 afbe b2b6 09be 27ba 0b3e 4603 453e
000002d0: 1c24 823e 7b1d 34bd 1d44 9e3d 8b89 013e
000002e0: c609 e43e ba5d f9bd 46aa 19bd 4839 a7bc
000002f0: 30a3 b4bc 5d17 2abd 1a67 b1bc 23c1 aabe
00000300: 74ef 83bd a63d 9d3d 16fd fbbe 9496 90bd
00000310: 9858 1ebe f8b7 01bd 7157 5abd 2f8c 70be
00000320: 1777 853d 2f02 5f3e d0f5 9bbe ed97 21bc
00000330: 1816 043e b136 813e 7f2a 85bc 20f0 c5be
00000340: d78c 933e 367d 7bbe 3631 06be cdc4 1f3e
00000350: de4b db3e 40e0 e83c ac54 9fbe 05fb 183e
00000360: 0529 1d3e 961b 513e 0f78 c2bd f82f ddbd
00000370: 8068 1fbe 36d2 0a3e d306 9abd a9d3 96be
00000380: 57f4 b9bd 888f ccbc 4b57 fe3c d3ce 213e
00000390: f56e a93e dc03 39bd eb09 11bd f05b 9c3d
000003a0: 1dbe e3be 7c08 273e 2366 78be b3ad bf3b
000003b0: d5d5 c03d fb83 813e d21c 943d c3be f4bd
000003c0: f419 6a3e 485d 33ba ec87 51bc a878 cb3b
000003d0: ca1b b9bd 3f0a 003e f2c4 5a3e a77f b3be
000003e0: 4f51 86bc 021e 133e 7037 e63e d2f2 7cbe
000003f0: cd50 7fbe 7fe1 22bd ab46 8d3c bcf7 ffbd

lstm.bias_ih_l1 f4 [512]
-0.5141162 -0.23780955 -0.09559438 -0.53998196 -0.35404697 -0.038557738 -0.17714362 0.039951347
0.15651312 -0.046152294 -0.11226632 -0.24216215 -0.10125598 -0.14359094 0.1631272 -0.23605615
-0.3996107 -0.23810907 -0.19170696 -0.10232511 -0.12894543 -0.31296986 -0.17181581 -0.25568578
0.36923367 -0.18827452 -0.3802687 -0.26208985 -0.41638675 -0.35510492 -0.2707516 -0.24068153
-0.079660356 -0.7241453 -0.41251326 -0.18907006 -0.58667505 0.27503663 0.10368734 -0.56109285
-0.19973344 -0.19085261 -0.03523308 -0.32142213 -0.78670746 -0.30246547 -0.51281536 -0.41213888
0.07170083 -0.40891847 -0.4237717 -0.15586938 -0.29578003 -0.33101264 -0.18551749 -0.1616971
-0.22994028 -0.2577993 -0.46521407 -0.62948865 -0.2181357 -0.6698894 -0.4221771 -0.43106884
-0.3161505 0.031478837 0.12686415 -0.3725132 0.25079364 -0.008724887 -0.18104528 -0.3252866
-0.0778406 0.123270415 -0.2583361 -0.2243545 -0.5165294 -0.54655 -0.20271392 -0.45047086
-0.47673684 -0.40940878 0.07829624 -0.37189162 -0.37538114 -0.5167379 -0.51201695 -0.4150832
-0.15345298 -0.44529718 -0.790791 -0.4622854 -0.360432 -0.20464124 -0.597714 0.12721482
-0.29099584 -0.26353657 -0.5477703 -0.47885022 -0.3860607 -0.6011285 -0.1436001 0.12647787
-0.19643115 -0.36990166 -0.23844372 -0.1696858 -0.34165877 0.084466025 -0.28716946 -0.036735512
-0.27741247 0.06782575 -0.22370854 -0.34831706 -0.44827828 -0.12092671 -0.27859634 0.046023577
-0.21012712 -0.4284119 -0.76444775 -0.2747617 -0.28516904 -0.33492422 -0.049227852 -0.48833
-0.22216876 0.15971813 0.06464243 -0.3280004 -0.018277261 0.53737515 0.17973085 -0.0005612922
0.16908947 -0.17662543 -0.07994472 -0.35212797 -0.08572096 -0.026002046 0.25180906 0.6762133
-0.4307634 0.17046757 -0.17807321 -0.047163874 -0.21843584 0.04499166 -0.22673383 0.40284893
0.20831479 0.12624931 -0.084506325 0.52889603 -0.12642212 0.1385198 -0.051890757 0.52848023
-0.02330442 -0.515218 0.07129026 0.18777025 0.25127643 0.17921682 0.15760511 -0.039110653
0.59406686 0.23745546 -0.061390065 0.20778742 0.2687501 -0.10994098 -0.22637422 0.14390323
-0.063120686 0.026117276 0.27691412 0.10468835 0.10776852 0.15354411 0.036115702 0.36690894
0.41884908 0.39590895 -0.11700953 0.28610796 -0.12671292 0.51035386 0.27652365 -0.054262765
0.25198662 0.18334335 0.4407351 -0.08312296 0.21513364 0.023786372 0.6426662 -0.30310068
0.44750595 0.13930313 -0.12723781 -0.069711745 0.07074487 0.5380307 0.07894034 0.6026425
-0.016508663 -0.3127852 0.5779513 -0.12732373 0.12211846 0.29247725 -0.08574122 0.23089196
-0.08984343 0.46393645 0.23974766 -0.09221248 -0.16411862 0.2676279 -0.42600778 0.48374555
-0.3778204 0.18222725 0.02352454 0.49095616 -0.08394493 0.64576125 -0.08452521 0.04299055
-0.16228856 -0.028635835 0.2867561 0.7202476 0.11548841 0.1447309 -0.17933674 -0.12634116
0.16128452 0.6756534 0.0077562416 -0.08423623 0.10969627 -0.14538723 -0.2046161 0.4449219
-0.10405718 -0.09251808 0.534273 0.06141813 0.041246038 -0.019832395 -0.033165883 0.034452323
00000000: 1f9d 03bf 5984 73be fcc6 c3bd 423c 0abf
00000010: a545 b5be b8ee 1dbd 2365 35be 06a4 233d
00000020: fa44 203e 300a 3dbd e2eb e5bd 5bf9 77be
00000030: 4c5f cfbd 8109 13be d10a 273e b4b8 71be
00000040: c699 ccbe ddd2 73be d44e 44be d48f d1bd
00000050: 450a 04be 963d a0be 7cf0 2fbe 3fe9 82be
00000060: 320c bd3e 09cb 40be 94b2 c2be a430 86be
00000070: a530 d5be 50d0 b5be f49f 8abe 3875 76be
00000080: f824 a3bd 9661 39bf f034 d3be 959b 41be
00000090: 5630 16bf 9ad1 8c3e 075a d43d c8a3 0fbf
000000a0: ec86 4cbe de6e 43be 9050 10bd 7191 a4be
000000b0: a965 49bf c1dc 9abe de47 03bf de03 d3be
000000c0: e2d7 923d c35d d1be 9bf8 d8be 399c 1fbe
000000d0: 7b70 97be 7d7a a9be 4cf8 3dbe ed93 25be
000000e0: 7775 6bbe 45fe 83be 8a30 eebe 2b26 21bf
000000f0: f75e 5fbe df7d 2bbf 9927 d8be 0eb5 dcbe
00000100: 7ade a1be f4ef 003d ade8 013e 0dba bebe
00000110: 0668 803e d4f2 0ebc ef63 39be f78b a6be
00000120: e46a 9fbd 3375 fc3d a144 84be 30bd 65be
00000130: 453b 04bf b3ea 0bbf 3d94 4fbe 1ea4 e6be
00000140: da16 f4be 079e d1be c759 a03d 9468 bebe
00000150: f531 c0be ef48 04bf 8b13 03bf c985 d4be
00000160: c722 1dbe fefd e3be 4771 4abf acb0 ecbe
00000170: 8b8a b8be 798d 51be c903 19bf 9a44 023e
00000180: 68fd 94be 44ee 86be ad3a 0cbf db2b f5be
00000190: c0a9 c5be 8fe3 19bf e80b 13be 6a83 013e
000001a0: 3f25 49be c063 bdbe 972a 74be 1dc2 2dbe
000001b0: e6ed aebe 86fc ac3d e007 93be fa77 16bd
000001c0: 0209 8ebe 3ae8 8a3d da13 65be 9d56 b2be
000001d0: bb84 e5be 6ca8 f7bd 2ea4 8ebe 3883 3c3d
000001e0: 902b 57be ce58 dbbe d9b2 43bf 91ad 8cbe
000001f0: ad01 92be 307b abbe 25a3 49bd 6406 fabe
00000200: 3580 63be 268d 233e 4063 843d abef a7be
00000210: 32ba 95bc 6b91 093f 5d0b 383e af23 13ba
00000220: ca25 2d3e 4cdd 34be 0fba a3bd 1e4a b4be
00000230: 788e afbd 3e02 d5bc 1eed 803e 511c 2d3f
00000240: 058d dcbe 0d8f 2e3e d358 36be e82e 41bd
00000250: a5ad 5fbe 2d49 383d ea2c 68be 3742 ce3e
00000260: 7950 553e 8047 013e a711 adbd bb65 073f
00000270: cd74 01be 22d8 0d3e 678b 54bd 7b4a 073f
00000280: e9e8 bebc 54e5 03bf a100 923d d846 403e
00000290: 4ea7 803e 9d84 373e 3c63 213e 7e32 20bd
000002a0: c414 183f 8627 733e 2674 7bbd 3ac6 543e
000002b0: 9d99 893e bd28 e1bd a5ce 67be 5e5b 133e
000002c0: 6b45 81bd e6f3 d53c b0c7 8d3e d866 d63d
000002d0: beb5 dc3d ab3a 1d3e 0fee 133d 7ddb bb3e
000002e0: 6373 d63e 94b4 ca3e b1a2 efbd be7c 923e
000002f0: 08c1 01be 8da6 023f 8294 8d3e a242 5ebd
00000300: 6404 813e 5cbe 3b3e 08a8 e13e 5f3c aabd
00000310: fe4b 5c3e a3db c23c c685 243f 0330 9bbe
00000320: 801f e53e 7ba5 0e3e a14a 02be 08c5 8ebd
00000330: b0e2 903d 61bc 093f 79ab a13d c746 1a3f
00000340: 2d3d 87bc 6225 a0be 9ef4 133f 2761 02be
00000350: 3e19 fa3d 94bf 953e 1899 afbd f16e 6c3e
00000360: d5ff b7bd 1489 ed3e 6980 753e e6d9 bcbd
00000370: b60e 28be 8606 893e b11d dabe 7fad f73e
00000380: ad71 c1be c899 3a3e 89b6 c03c 9b5e fb3e
00000390: 52eb abbd 9c50 253f 8e1b adbd dc16 303d
000003a0: f92e 26be b395 eabc b2d1 923e 2662 383f
000003b0: 3085 ec3d 5634 143e 0da4 37be 945f 01be
000003c0: c527 253e 9ff7 2c3f 1228 fe3b 0b84 acbd
000003d0: 70a8 e03d 64e0 14be e286 51be cecc e33e
000003e0: ee1b d5bd 1e7a bdbd 1ec6 083f 9491 7b3d
000003f0: 9bf1 283d 8c77 a2bc f3d8 07bd e11d 0d3d

lstm.bias_hh_l1 f4 [512]
-0.50755024 -0.3316042 -0.097849004 -0.49873954 -0.32663056 -0.10465282 -0.19601712 0.04299295
0.28199518 -0.029333252 0.012366789 -0.1457552 -0.07717076 -0.049445122 0.17883947 -0.24152727
-0.41889453 -0.27595583 -0.29383966 -0.12111185 -0.15736075 -0.35703596 -0.118529335 -0.34139517
0.35163155 -0.21710588 -0.35362867 -0.20922735 -0.36058 -0.366521 -0.26263642 -0.28029042
-0.13609146 -0.7343917 -0.4958978 -0.18623452 -0.46652284 0.19391112 0.06572209 -0.4500854
-0.20900258 -0.16865204 0.051200084 -0.24824564 -0.7451003 -0.35109177 -0.47227424 -0.4604907
0.036854617 -0.3813918 -0.39368692 -0.10118037 -0.23578256 -0.38362932 -0.1553732 -0.20369674
-0.15492597 -0.19244847 -0.5257547 -0.546455 -0.22861233 -0.7829078 -0.448722 -0.47280547
-0.2667052 -0.024744127 0.17781809 -0.25744632 0.15479483 -0.019842857 -0.24370931 -0.26198748
-0.07435657 0.119575664 -0.10855305 -0.28272793 -0.5315078 -0.5981631 -0.15853074 -0.45595622
-0.40185082 -0.556862 0.08653656 -0.37323022 -0.42194724 -0.46957427 -0.510718 -0.3495324
-0.12495399 -0.5149517 -0.7894533 -0.38118586 -0.34103504 -0.2522788 -0.48799625 0.049685575
-0.27103215 -0.30466428 -0.498392 -0.36931384 -0.38315016 -0.65751255 -0.2260852 0.04337254
-0.27982143 -0.40346473 -0.122379266 -0.14626974 -0.34309486 0.20387153 -0.30903974 -0.07184617
-0.21792229 -0.10133131 -0.376473 -0.26154014 -0.5809055 -0.19890156 -0.31962106 0.07041751
-0.32719123 -0.5330016 -0.8551628 -0.37446705 -0.38496453 -0.32625175 -0.013182515 -0.40432933
-0.35020885 0.17177938 0.050665822 -0.42011458 -0.1005229 0.42520106 0.06984556 -0.10416913
0.09836432 -0.15265849 -0.03696193 -0.41483295 0.020947682 -0.009344037 0.09744625 0.6511733
-0.45963064 0.10237694 -0.061828554 0.0074779964 -0.22047614 0.067497276 -0.1980005 0.33927846
0.2065745 0.08100567 -0.15521719 0.46509084 -0.013785827 0.118637934 0.062119745 0.50368834
0.038003325 -0.52206874 0.044427056 0.15522712 0.1057072 0.19384307 0.09605333 -0.06431617
0.5646148 0.17326087 0.10786762 0.07912903 0.26219264 -0.17567345 -0.17742512 0.10414758
-0.1585399 0.06811308 0.1975766 -0.03405472 0.083289795 0.018433549 0.029216934 0.3032924
0.37665057 0.41651422 -0.10049173 0.4218639 -0.01423725 0.52256995 0.20802598 -0.0040104706
0.2419307 0.123364404 0.4709518 -0.18457028 0.26826406 0.15386602 0.63151217 -0.24357845
0.47474968 0.11604871 -0.14539768 -0.08736417 0.03404921 0.55386984 0.096860364 0.5519318
-0.04754523 -0.3321416 0.63075274 -0.12363027 0.1491507 0.25569355 0.038772665 0.31765077
-0.084475055 0.47616166 0.17899737 -0.03576179 -0.17745796 0.41321635 -0.45838866 0.45741385
-0.39566666 0.116616465 0.10932802 0.44788095 -0.14805324 0.65030724 -0.06037135 0.0504198
-0.0256867 -0.07825838 0.24512325 0.7309501 0.04766949 0.21214193 -0.17618836 -0.11162582
0.16087933 0.6834145 0.114731304 -0.036238063 0.1548773 -0.12655593 -0.20688947 0.4420297
-0.14095506 -0.12431827 0.56439424 -0.06814429 0.15175143 0.048974182 0.07616914 0.030001689
00000000: d0ee 01bf 07c8 a9be 0f65 c8bd ca5a ffbe
00000010: 1f3c a7be 3854 d6bd b6b8 48be 6019 303d
00000020: ac61 903e 4a4c f0bc 139e 4a3c da40 15be
00000030: b40b 9ebd f886 4abd b221 373e ed52 77be
00000040: 5879 d6be 154a 8dbe 2772 96be 7d09 f8bd
00000050: 2d23 21be 6bcd b6be 82bf f2bd 59cb aebe
00000060: 0d09 b43e 0151 5ebe d10e b5be b23f 56be
00000070: f19d b8be a4a8 bbbe 4878 86be 3a82 8fbe
00000080: 8f5b 0bbe 1801 3cbf 51e6 fdbe 43b4 3ebe
00000090: 15dc eebe a390 463e 4e99 863d 9871 e6be
000000a0: c604 56be 1fb3 2cbe 2eb7 513d 1b34 7ebe
000000b0: e5be 3ebf 4dc2 b3be eecd f1be 70c5 ebbe
000000c0: def4 163d c945 c3be 5591 c9be a737 cfbd
000000d0: fc70 71be 106b c4be 271a 1fbe e195 50be
000000e0: eaa4 1ebe 3611 45be dc97 06bf 7ae4 0bbf
000000f0: 5a19 6abe a56c 48bf e4be e5be 8f13 f2be
00000100: 958d 88be 32b4 cabc f215 363e 01d0 83be
00000110: 8982 1e3e 7d8d a2bc ef8e 79be 3923 86be
00000120: 4248 98bd 16e4 f43d 1051 debd b7c1 90be
00000130: e510 08bf 3821 19bf e255 22be 1873 e9be
00000140: 64bf cdbe 828e 0ebf 143a b13d 0818 bfbe
00000150: 7809 d8be 0a6c f0be 6abe 02bf e9f5 b2be
00000160: e1e7 ffbd e0d3 03bf 9d19 4abf cb2a c3be
00000170: 259c aebe b02a 81be a5da f9be 1a83 4b3d
00000180: bac4 8abe f5fc 9bbe 3c2d ffbe b416 bdbe
00000190: 422c c4be be52 28bf e182 67be 68a7 313d
000001a0: c144 8fbe ee92 cebe fba1 fabd bcc7 15be
000001b0: 21aa afbe b3c3 503e 753a 9ebe 1624 93bd
000001c0: 0527 5fbe ca86 cfbd 12c1 c0be 97e8 85be
000001d0: 39b6 14bf daac 4bbe 5fa5 a3be 0e37 903d
000001e0: 9c85 a7be cb72 08bf f3eb 5abf 25ba bfbe
000001f0: 121a c5be 780a a7be 7afb 57bc 4104 cfbe
00000200: 934e b3be efe6 2f3e f786 4f3d 4219 d7be
00000210: f3de cdbd f4b3 d93e 300b 8f3d a056 d5bd
00000220: 3c73 c93d 8252 1cbe 6565 17bd fc64 d4be
00000230: 799a ab3c bb17 19bc e691 c73d 4bb3 263f
00000240: b554 ebbe 00ab d13d f03f 7dbd fb09 f53b
00000250: 7fc4 61be 033c 8a3d a5c0 4abe e8b5 ad3e
00000260: 4488 533e 4de6 a53d 41f1 1ebe 6320 ee3e
00000270: f3dd 61bc 72f8 f23d 4671 7e3d b8f1 003f
00000280: 60a9 1b3d 4ca6 05bf 25f9 353d dcf3 1e3e
00000290: 047d d83d cc7e 463e 9cb7 c43d 32b8 83bd
000002a0: 988a 103f 4c6b 313e b3e9 dc3d 670e a23d
000002b0: 1d3e 863e bee3 33be eeae 35be 544b d53d
000002c0: 4958 22be df7e 8b3d 8551 4a3e f67c 0bbd
000002d0: d793 aa3d f401 973c 5a58 ef3c 2449 9b3e
000002e0: 58d8 c03e 5a41 d53e 9cce cdbd 8cfe d73e
000002f0: 5b43 69bc 25c7 053f c304 553e 446a 83bb
00000300: aebc 773e 7aa6 fc3d 9820 f13e feff 3cbe
00000310: e859 893e 0e8f 1d3e c8aa 213f a16c 79be
00000320: 6412 f33e f2aa ed3d 21e3 14be fceb b2bd
00000330: 2f77 0b3d 6aca 0d3f ba5e c63d 674b 0d3f
00000340: c9be 42bd 770e aabe 0379 213f de31 fdbd
00000350: f6ba 183e 44ea 823e 16d0 1e3d 1fa3 a23e
00000360: 4201 adbd 76cb f33e 164b 373e f47a 12bd
00000370: 8ab7 35be 1891 d33e ebb1 eabe 2632 ea3e
00000380: d294 cabe 9dd4 ee3d 5ee7 df3d a750 e53e
00000390: 459b 17be 897a 263f f347 77bd fe84 4e3d
000003a0: ea6c d2bc ee45 a0bd 9701 7b3e 8c1f 3b3f
000003b0: 1541 433d bc3b 593e b96a 34be 149c e4bd
000003c0: 8dbd 243e 41f4 2e3f 3ff8 ea3d 5d6e 14bd
000003d0: 2898 1e3e e197 01be d5da 53be b851 e23e
000003e0: 8656 10be 949a febd 247c 103f 3c8f 8bbd
000003f0: ba64 1b3e 2799 483d 91fe 9b3d 1ac6 f53c
